src/compiled/nn_model.pth.tar (torch, 12426 bytes, 9 tensors)

layer1.weight f4 [60, 8]
000000 c0 ea 95 3e 88 00 0d be eb 67 8a 3e c8 72 4b 3e
       0.29280663 -0.13769734 0.27032408 0.19868004
000010 bd dd 51 be d4 83 f3 bc a8 dc 56 3e e6 f9 5b be
       -0.20494743 -0.029725946 0.20982611 -0.21482047
000020 d9 a0 4f be fb 0c cf 3d 3d 91 42 3e 23 54 8f be
       -0.20276202 0.10109898 0.19000717 -0.2799388
000030 8e 9c 01 be 27 da 34 3d f7 e9 dc 3d 80 02 71 3e
       -0.12657377 0.04415336 0.10786813 0.2353611
000040 72 74 aa 3e 61 bc 9e 3e 02 7b 08 be 9a 49 2b be
       0.33291966 0.31003097 -0.13328174 -0.16727296
000050 80 02 02 3e 6d 4a cb 3d 14 1c 49 bd b0 7a 54 3e
       0.12696266 0.09926305 -0.049099043 0.20749927
000060 df 66 1a 3e b8 29 b6 3d 88 c0 ea 3c 67 7b f7 3d
       0.15078305 0.08894676 0.02865626 0.12084084
000070 e5 97 d7 3d 2b 0d 37 3c f2 cb 10 3e e6 99 9b be
       0.105270185 0.011172573 0.14140299 -0.30390853
000080 bf dd 9f 3e 06 bb 98 3e 3a b2 97 3c d0 4c b3 bd
       0.31223866 0.29830188 0.018517602 -0.08754885
000090 5e 70 86 be a7 0d f0 bd d4 64 4f be 6c 48 2b be
       -0.26257604 -0.11721354 -0.20253307 -0.16726846
0000a0 66 38 44 be 39 7d 19 3e 34 da 0c 3e f3 9b 6a bd
       -0.1916214 0.14989175 0.13755113 -0.05727763
0000b0 1f 7a 9f bc e2 dc cb 3d aa 7f 17 3e 5a 61 b7 3e
       -0.019467412 0.099542394 0.14794794 0.3581646
0000c0 0c 1b 5d 3e f3 52 a4 bd 45 e6 73 3e aa 94 20 bd
       0.21592349 -0.08023634 0.2381831 -0.039204277
0000d0 4e 41 35 3e b4 d5 47 b9 4e de 29 be aa 2e 98 3d
       0.17700693 -0.0001905773 -0.16588709 0.074307755
0000e0 50 cf 81 be 7a 9d 19 be c1 1f 4e 3d fc 80 af 3e
       -0.2535348 -0.15001479 0.05032325 0.34278095
0000f0 93 9f 1e 3e 94 c8 9a 3e 81 44 99 be c5 51 b8 3e
       0.1549056 0.30231154 -0.29935077 0.35999885
000100 32 a5 a3 be 4d 8c 07 3e 81 e0 81 3e af f1 9b 3c
       -0.31961972 0.13237114 0.25366595 0.019036142
000110 f2 1a 71 3e 7e d4 4d 3e 1c ad 84 be 48 f8 8f be
       0.23545435 0.2010059 -0.25913322 -0.2811911
000120 a2 55 77 3e 3d 56 0f 3e 2e ba fe 3d 8b eb ac 3e
       0.2415376 0.13997741 0.12437855 0.33773455
000130 1f 77 c2 3d e8 bc 9e bd a1 7a a6 3e 98 a0 77 bd
       0.09495377 -0.07750875 0.32515433 -0.06045589
000140 8e 93 8b be 14 e1 95 bd d3 0e 56 3e 03 37 a2 3e
       -0.27261013 -0.07318321 0.20904092 0.31682596
000150 1a 31 3e be ec b2 fe bc f6 fe 62 3e c9 15 8a be
       -0.18573418 -0.031091176 0.22167572 -0.26969746
000160 b0 75 e7 3d b8 ad ae 3d b7 91 36 be 4e 88 72 3e
       0.11301744 0.08529228 -0.17829023 0.23684809
000170 e0 1f b3 bd 91 f1 9e 3e fc 9a ad be 07 37 47 be
       -0.08746314 0.31043676 -0.33907306 -0.19454585
000180 b7 89 8a 3e 94 4e 76 be 0f 06 6b be 6c 2e 53 be
       0.27058193 -0.24053413 -0.2295153 -0.20623177
000190 d0 1e 92 bc 77 f8 25 be 28 86 5e be 41 73 ac be
       -0.017836958 -0.16208063 -0.21730864 -0.33681682
0001a0 7e 50 2b be b3 30 9c 3e f5 a2 93 3c 7c 77 94 be
       -0.16729924 0.30505905 0.01802204 -0.2899741
0001b0 da 5a a2 3e f4 53 78 3e 3c 63 06 be b0 4c 78 3d
       0.3170994 0.24250776 -0.13123792 0.06062001
0001c0 e2 75 34 be 74 7f e7 3d 30 04 0b be 6e ca 9e be
       -0.17623094 0.11303607 -0.13575816 -0.31013817
0001d0 86 29 7b 3e d1 83 9c 3e 3b 4a a2 be 97 ad 8c be
       0.24527559 0.30569318 -0.31697258 -0.2747619
0001e0 a5 b5 25 be e6 f6 4c 3e ce d9 62 be 8c 1e fb 3d
       -0.16182573 0.2001606 -0.22153398 0.12261686
0001f0 dd 37 c2 3d 7f e0 1d 3c 0f bf 1c 3e b5 79 32 be
       0.09483311 0.009636044 0.15307258 -0.1742924
000200 be fc 6d 3e 49 48 81 3d e0 52 57 bd 03 4b ad 3e
       0.23240945 0.063126154 -0.05256927 0.33846292
000210 1d f9 dd 3d 4f f4 8c 3e f4 d0 0f bd 14 6a 92 bd
       0.1083853 0.27530143 -0.035111383 -0.07149139
000220 72 eb 86 be 67 9b a8 3e b4 0f 30 be d0 5e 4b 3d
       -0.26351506 0.32931063 -0.1719349 0.049650967
000230 2e 25 55 3e 5e 0f 5e 3e d9 13 0c be d3 41 84 be
       0.20814964 0.2168555 -0.13679446 -0.2583147
000240 e5 01 52 be a5 ec a2 3e 51 aa a6 3e 13 51 58 be
       -0.20508535 0.3182117 0.32551816 -0.21124677
000250 0e 4a 0a 3e 1f e6 95 3e 7f 8e 7f be 07 e8 2f 3e
       0.13504812 0.2927713 -0.24956702 0.17178355
000260 25 66 86 3e 9c 33 ee 3d c3 67 b1 be 47 87 8f 3e
       0.26249805 0.116309375 -0.34649476 0.28032896
000270 64 20 1a be ba bc 4e 3e b0 24 92 3d 18 bd 6c bd
       -0.15051419 0.20189181 0.07135904 -0.05779752
000280 c8 3f 2e 3e 76 1a 80 3e 06 7f 55 3e ff 2e 96 3e
       0.17016518 0.25020188 0.20849237 0.2933273
000290 fd 56 49 3e 07 c5 6b 3e 3d 56 e6 bd 3a 0a a8 3e
       0.1966209 0.23024379 -0.112469174 0.32820302
0002a0 02 98 2e bd 35 b2 ab be 17 b7 6c 3e 73 73 86 be
       -0.042625435 -0.335344 0.23116718 -0.26259956
0002b0 1d ef 49 3e d1 5e 94 bc 85 30 4a be a8 68 ca bd
       0.1972012 -0.018111618 -0.19745071 -0.09883243
0002c0 33 af 8b 3a bb a9 10 be b0 bf 1b bd 19 65 83 be
       0.0010657072 -0.14127247 -0.038024604 -0.2566307
0002d0 4a b5 9e bd 5d 00 a6 3e 65 af 98 be a2 55 84 3e
       -0.07749422 0.32422152 -0.29821315 0.25846583
0002e0 e4 07 72 3e 16 75 b5 bb 33 5e 9f be 4a e1 1a be
       0.23635823 -0.0055376394 -0.31126556 -0.15125003
0002f0 6d 0d 54 be 60 d6 6d 3e d5 6f a7 3e 46 d3 a8 3d
       -0.20708247 0.23226309 0.3270251 0.08243422
000300 0c c6 b0 bd 86 09 d9 bd 6a 3d ef bd e3 11 2f be
       -0.086315244 -0.105975196 -0.11681636 -0.17096667
000310 a7 94 8d be 06 25 85 3c b0 98 2e be 4f ba 9d 3e
       -0.27652475 0.016253006 -0.17050433 0.30806205
000320 d0 b7 65 3d c8 c8 9f bd e5 0b 25 be d0 a0 89 3d
       0.0560835 -0.07801968 -0.16117819 0.06720126
000330 00 56 9a 3a a2 33 7b 3e e8 88 c8 bd b0 ee 01 3e
       0.0011774898 0.24531415 -0.09791738 0.12688708
000340 72 b5 53 3e ea f7 7a 3e fa 49 73 be d2 88 5c be
       0.20674685 0.24508634 -0.23758689 -0.21536568
000350 29 81 86 3e 02 73 ae be 93 af 9a 3e dc 45 7c be
       0.26270416 -0.3407212 0.30212077 -0.24636024
000360 f6 e1 71 be 44 06 c0 3d bc 78 e4 bd 1c 9e c9 bd
       -0.23621354 0.09376195 -0.11155841 -0.0984461
000370 6e 22 21 3e 74 8b 87 bd 53 d2 5a be 89 b2 a7 be
       0.1573579 -0.066183954 -0.21369295 -0.327534
000380 88 1d b3 3e 94 1a 04 3e 15 c6 b1 3c 58 5a 70 3e
       0.34983468 0.12900764 0.021700898 0.23471963
000390 f9 f3 7e bd b2 a2 72 3e 04 f5 52 bd d1 1a c9 39
       -0.06224439 0.23694876 -0.051503196 0.00038357687
0003a0 57 de 1a 3e 9b 75 8b 3e 6b 8a de bc af 1b ad 3e
       0.15123878 0.27238163 -0.027165612 0.33810183
0003b0 5f 61 89 bb 77 b1 9b 3e 03 72 6b 3d 11 cb 37 be
       -0.0041925157 0.30408832 0.057481777 -0.17948557
0003c0 37 2d 3c 3d d5 52 8b 3d 21 71 57 3e b9 c3 29 be
       0.045941558 0.06802908 0.21039249 -0.16578569
0003d0 8c b0 4e be f9 d9 a9 bd ef 3f f4 3d fa 04 36 3e
       -0.20184535 -0.08293528 0.11926257 0.17775336
0003e0 5a 15 97 be 45 ac 5f be 6a c8 1b be 30 57 4f 3d
       -0.29508477 -0.2184306 -0.1521317 0.050620258
0003f0 ff 05 42 be 82 7e ab be ea 20 3d be 80 99 88 bd
       -0.189476 -0.33494955 -0.18469587 -0.06669903

layer1.bias f4 [60]
000000 46 32 15 3d 56 2c f1 3b cb ec 8f bd 0c 21 97 3d
       0.036424898 0.0073600216 -0.070275865 0.0737935
000010 4b 1a 5a 3e 17 f9 c3 3d b9 2c 9a 3d a2 42 c6 3d
       0.21299092 0.095689945 0.075280614 0.09680678
000020 42 60 70 bd 43 a1 f3 3d 37 e5 51 3e e6 a0 36 3e
       -0.05868555 0.118959926 0.20497595 0.17834815
000030 13 1e a2 be 41 a7 ce 3b 1f 9c b4 be 1b e5 4f 3e
       -0.3166357 0.0063065593 -0.3527536 0.2030224
000040 16 8c 0e be a8 75 00 be 39 e9 90 3e c0 08 ef bb
       -0.13920626 -0.12544882 0.28302935 -0.0072947443
000050 7f a3 94 be 70 e8 07 bb 0e 96 be 3d 6d 77 a4 3d
       -0.29030988 -0.0020737909 0.093059644 0.08030591
000060 5c 3c 8c 3e c7 78 a8 be 06 fe 97 be 4f 57 ad be
       0.273898 -0.32904646 -0.29685992 -0.33855674
000070 6a 0e 0a 3d 8b a1 ad be d5 1b 4d be 14 49 86 be
       0.033705153 -0.3391231 -0.20030148 -0.2622763
000080 40 a9 97 3e ee 9c 19 3e 6b ec 63 3e eb e8 74 be
       0.29621315 0.1500127 0.22258155 -0.23916976
000090 f7 4a af 3e f8 4a 49 3e d1 bd 2a bd 87 ea a3 be
       0.3423688 0.19657505 -0.04168493 -0.32014868
0000a0 fe 3c dd 3d c2 5e ad bd 3b 87 1f 3e 13 5a 8e be
       0.10802649 -0.08465339 0.1557893 -0.27803096
0000b0 dd 10 86 be a3 81 e5 3d 7c 9a 1d be 41 26 82 3e
       -0.2618474 0.11206367 -0.15390962 0.2541981
0000c0 00 7f 8c 3e 2c 4b a5 bd 01 cb 1a be 90 a6 56 bd
       0.27440643 -0.080709785 -0.15116502 -0.05240494
0000d0 2a 78 a5 3e 9e a3 2d 3e d0 51 4e 3d 8a 6e 17 3e
       0.3231824 0.16956946 0.05037099 0.14788261
0000e0 9a 05 95 be 28 d8 0e 3e 65 98 80 be a0 ae 33 bd
       -0.29105836 0.13949645 -0.25116268 -0.043867707

output.weight f4 [1, 60]
000000 96 fd a8 3d 39 54 5a bd aa e5 02 3e 47 c2 3e bd
       0.08251493 -0.053302977 0.12782922 -0.046571996
000010 04 8a 79 3c 03 77 ba bd d3 60 bd 3c 56 57 78 bc
       0.015230659 -0.09104731 0.023117458 -0.015157541
000020 4a 93 da 3d 4d a6 0e bd d5 17 d1 3d de 0a 83 3d
       0.106726244 -0.034826566 0.10209624 0.06398557
000030 00 76 33 3c 45 45 7b bc 63 ca e1 bd f7 56 a8 3d
       0.010953426 -0.015336339 -0.1102493 0.08219712
000040 6c af ed 3d d6 d8 9b 3d d1 44 d7 3d b6 fd 5b bd
       0.11605725 0.076097175 0.105111726 -0.053708754
000050 2b 22 4d bc fc 1c ad 3d eb 04 c1 3d 89 6c 08 3d
       -0.012520353 0.08452794 0.09424766 0.033306632
000060 f9 7c 9d bd 12 08 44 bd 6e cd a1 bd 6a c8 a2 bd
       -0.07689852 -0.04785926 -0.07900511 -0.07948382
000070 19 73 98 bc ad a0 aa ba 8a 24 28 bb 3c 97 38 bd
       -0.01860957 -0.0013017856 -0.0025656545 -0.045066103
000080 b0 81 a0 bd 4e ad ac 3d b9 47 bc bc c3 92 03 3e
       -0.07837236 0.08431493 -0.022983419 0.12848954
000090 e6 e5 ce bd e0 36 08 be f4 08 c1 3c f1 5c 81 bd
       -0.101024434 -0.13302183 0.02356384 -0.06316555
0000a0 30 86 8c bc a1 99 f8 bd d1 73 a4 bd 9a 01 2f bc
       -0.01715383 -0.121386774 -0.08029903 -0.010681534
0000b0 c4 8b e1 3d 71 bc 07 bd bd 9b 99 bc 28 a5 55 bd
       0.11012986 -0.033138696 -0.01875102 -0.05215946
0000c0 ff da ba bd 84 8f da bd 28 bd c0 3c df d6 e9 3d
       -0.091238014 -0.10671905 0.023527697 0.114179365
0000d0 10 d4 e4 bd 1e 06 bb bd c0 a7 b6 3c 9c 66 2f bd
       -0.1117326 -0.09132026 0.022296786 -0.042822465
0000e0 94 4c c7 bc d5 58 84 3c f2 0b ac bc 38 b4 d4 3c
       -0.024328507 0.01615564 -0.02100179 0.025964841

exp_avg f4 [60, 8]
000000 4a b2 08 b6 fe 1d a8 38 68 db 75 3b ff 43 14 35
       -2.0369357e-06 8.016451e-05 0.003751481 5.5233244e-07
000010 50 16 22 38 25 ef 10 38 1e e0 21 38 c7 12 22 38
       3.864459e-05 3.4554996e-05 3.8594117e-05 3.8641298e-05
000020 72 86 a3 35 32 31 4a b8 c3 6c 13 bb 45 0a b1 b4
       1.2183575e-06 -4.820637e-05 -0.0022495247 -3.297629e-07
000030 51 6b c2 b7 a0 c9 ad b7 25 2e c2 b7 99 6b c2 b7
       -2.3176575e-05 -2.0717096e-05 -2.314809e-05 -2.3176706e-05
000040 83 8f d9 2b e8 55 48 2d 00 00 00 00 00 00 00 00
       1.545861e-12 1.1387759e-11 0.0 0.0
000050 75 c6 ce ad 75 c6 ce ad dd 39 cd ad 7a 37 cd ad
       -2.3507621e-11 -2.3507621e-11 -2.3331498e-11 -2.3330438e-11
000060 53 91 04 37 6c 13 5f 37 e1 e7 16 bc 04 00 00 00
       7.901649e-06 1.3296358e-05 -0.009210558 6e-45
000070 98 68 c3 b8 3b fd c2 b8 9f 0c c1 b8 13 39 c1 b8
       -9.317807e-05 -9.297809e-05 -9.205308e-05 -9.213588e-05
000080 a4 c3 67 34 88 71 4d b7 b1 03 b3 b9 8a 74 92 b3
       2.1584725e-07 -1.2245386e-05 -0.0003414429 -6.819853e-08
000090 26 9c 66 b6 4a 5e 56 b6 40 7b 64 b6 30 d6 64 b6
       -3.436356e-06 -3.1943368e-06 -3.4046388e-06 -3.409932e-06
0000a0 67 f8 13 36 65 af b6 b8 b8 4e 85 bb f3 47 20 b5
       2.2049296e-06 -8.711106e-05 -0.004068222 -5.9709345e-07
0000b0 27 cb 2f b8 26 27 1d b8 e5 92 2f b8 42 ca 2f b8
       -4.191245e-05 -3.7468177e-05 -4.1860058e-05 -4.191162e-05
0000c0 a2 61 8e b2 72 8c e7 b1 ba c2 14 b5 d4 2c 90 b0
       -1.6575374e-08 -6.7389516e-09 -5.541766e-07 -1.049012e-09
0000d0 1f 41 35 b1 1f 41 35 b1 9a 5b be b1 cb 94 be b1
       -2.6375984e-09 -2.6375984e-09 -5.5401417e-09 -5.5466436e-09
0000e0 7d 28 fb 35 9d 77 9b 36 d7 83 09 bb 02 a4 cd b4
       1.8712741e-06 4.633285e-06 -0.0020983124 -3.8303557e-07
0000f0 ea 10 b2 b7 ea 10 b2 b7 18 4f b0 b7 e4 5d b0 b7
       -2.122713e-05 -2.122713e-05 -2.1017666e-05 -2.1024556e-05
000100 3a 47 3e b6 41 26 ea 38 e0 28 ab 3b 81 57 4e 35
       -2.8353666e-06 0.00011165115 0.0052233785 7.6868315e-07
000110 a8 af 61 38 af cb 49 38 b4 64 61 38 56 ab 61 38
       5.3807773e-05 4.811183e-05 5.3737967e-05 5.380375e-05
000120 1a f8 99 35 47 6b 3e b8 14 d3 0a bb 79 af a6 b4
       1.1471595e-06 -4.539944e-05 -0.0021182941 -3.1047583e-07
000130 23 14 b7 b7 f8 a5 a3 b7 b4 da b6 b7 95 14 b7 b7
       -2.1824677e-05 -1.95084e-05 -2.1797932e-05 -2.1824884e-05
000140 4e b0 2a b6 e8 01 d2 38 bb 86 99 3b 08 1c 39 35
       -2.5434597e-06 0.000100139354 0.0046852506 6.895866e-07
000150 1f 6f 4a 38 ba 01 35 38 c3 2b 4a 38 17 6b 4a 38
       4.8264043e-05 4.315537e-05 4.820131e-05 4.8260288e-05
000160 00 00 00 00 00 00 00 00 00 00 00 00 00 00 00 00
       0.0 0.0 0.0 0.0
000170 00 00 00 00 00 00 00 00 00 00 00 00 00 00 00 00
       0.0 0.0 0.0 0.0
000180 00 00 00 00 00 00 00 00 00 00 00 00 00 00 00 00
       0.0 0.0 0.0 0.0
000190 00 00 00 00 00 00 00 00 00 00 00 00 00 00 00 00
       0.0 0.0 0.0 0.0
0001a0 41 7f 92 35 6d d1 35 b8 1f 4e 04 bb 53 42 8b b4
       1.0914883e-06 -4.3348806e-05 -0.0020188165 -2.5939025e-07
0001b0 46 7c ae b7 e5 f0 9b b7 af 45 ae b7 07 7d ae b7
       -2.0800286e-05 -1.8589615e-05 -2.0774865e-05 -2.0800637e-05
0001c0 00 00 00 00 00 00 00 00 00 00 00 00 00 00 00 00
       0.0 0.0 0.0 0.0
0001d0 00 00 00 00 00 00 00 00 00 00 00 00 00 00 00 00
       0.0 0.0 0.0 0.0
0001e0 58 56 bb 2b 37 81 2c 2d 00 00 00 00 00 00 00 00
       1.3311114e-12 9.8057595e-12 0.0 0.0
0001f0 b6 0c b2 ad b6 0c b2 ad 38 b7 b0 ad 28 b5 b0 ad
       -2.0241902e-11 -2.0241902e-11 -2.0090249e-11 -2.0089333e-11
000200 86 c2 d5 2b f6 d5 44 2d 00 00 00 00 00 00 00 00
       1.5188551e-12 1.1188819e-11 0.0 0.0
000210 ab 29 cb ad ab 29 cb ad 03 a4 c9 ad a3 a1 c9 ad
       -2.3096932e-11 -2.3096932e-11 -2.292389e-11 -2.2922836e-11
000220 00 00 00 00 00 00 00 00 00 00 00 00 00 00 00 00
       0.0 0.0 0.0 0.0
000230 00 00 00 00 00 00 00 00 00 00 00 00 00 00 00 00
       0.0 0.0 0.0 0.0
000240 71 3a 3e b6 8c 16 ea 38 65 1d ab 3b a3 49 4e 35
       -2.8346224e-06 0.00011162189 0.00522201 7.6848136e-07
000250 81 a0 61 38 20 be 49 38 92 55 61 38 2b 9c 61 38
       5.379366e-05 4.8099202e-05 5.3723874e-05 5.3789623e-05
000260 00 00 00 00 00 00 00 00 00 00 00 00 00 00 00 00
       0.0 0.0 0.0 0.0
000270 00 00 00 00 00 00 00 00 00 00 00 00 00 00 00 00
       0.0 0.0 0.0 0.0
000280 34 26 19 35 1e 0c be b7 51 4e 8a ba dc 9d 25 b4
       5.7052534e-07 -2.2655408e-05 -0.0010551905 -1.5424251e-07
000290 fb 69 36 b7 30 05 23 b7 04 33 36 b7 18 6d 36 b7
       -1.0872721e-05 -9.716765e-06 -1.0859923e-05 -1.0873446e-05
0002a0 b2 94 ff b5 0f 24 9d 38 ba d2 65 3b b6 9c 0a 35
       -1.9042257e-06 7.49306e-05 0.003506823 5.163705e-07
0002b0 02 84 17 38 8d 7b 07 38 44 51 17 38 9a 80 17 38
       3.6124147e-05 3.2301574e-05 3.607689e-05 3.6120975e-05
0002c0 1c b0 cf 2b 92 3e 3f 2d 00 00 00 00 00 00 00 00
       1.4757115e-12 1.0870986e-11 0.0 0.0
0002d0 40 64 c5 ad 40 64 c5 ad af e9 c3 ad 6d e7 c3 ad
       -2.2440827e-11 -2.2440827e-11 -2.227271e-11 -2.2271707e-11
0002e0 17 b8 a4 2b 45 ad 17 2d 00 00 00 00 00 00 00 00
       1.1703996e-12 8.62183e-12 0.0 0.0
0002f0 65 8d 9c ad 65 8d 9c ad 2a 61 9b ad 53 5f 9b ad
       -1.7797938e-11 -1.7797938e-11 -1.766461e-11 -1.7663792e-11
000300 04 00 00 80 04 00 00 80 00 00 00 00 00 00 00 00
       -6e-45 -6e-45 0.0 0.0
000310 04 00 00 00 04 00 00 00 04 00 00 00 04 00 00 00
       6e-45 6e-45 6e-45 6e-45
000320 00 00 00 00 00 00 00 00 00 00 00 00 00 00 00 00
       0.0 0.0 0.0 0.0
000330 00 00 00 00 00 00 00 00 00 00 00 00 00 00 00 00
       0.0 0.0 0.0 0.0
000340 00 00 00 00 00 00 00 00 00 00 00 00 00 00 00 00
       0.0 0.0 0.0 0.0
000350 00 00 00 00 00 00 00 00 00 00 00 00 00 00 00 00
       0.0 0.0 0.0 0.0
000360 00 00 00 00 00 00 00 00 00 00 00 00 00 00 00 00
       0.0 0.0 0.0 0.0
000370 00 00 00 00 00 00 00 00 00 00 00 00 00 00 00 00
       0.0 0.0 0.0 0.0
000380 72 d0 8b 36 c9 a6 24 37 99 48 9b bb 2b 87 54 b5
       4.166789e-06 9.813994e-06 -0.004738879 -7.917285e-07
000390 8b 0e 49 b8 8b 0e 49 b8 f5 06 47 b8 28 11 47 b8
       -4.793568e-05 -4.793568e-05 -4.7451776e-05 -4.7461275e-05
0003a0 10 9a 8e b6 d5 60 00 ba a1 02 b7 bb fe f5 56 b6
       -4.249865e-06 -0.00048972416 -0.00558503 -3.2031671e-06
0003b0 e2 0d 80 b8 6e 66 20 b8 9c 6f 85 b8 11 31 86 b8
       -6.1061015e-05 -3.8242368e-05 -6.362723e-05 -6.398757e-05
0003c0 95 5a 02 38 ad e9 c2 b8 c5 ba 0c bd 7f ca 45 b5
       3.1078776e-05 -9.2941664e-05 -0.034357805 -7.368289e-07
0003d0 12 3e b6 b9 bb 75 b3 b9 60 83 b3 b9 77 84 b3 b9
       -0.0003475999 -0.00034229257 -0.00034239423 -0.00034240235
0003e0 00 00 00 00 00 00 00 00 00 00 00 00 00 00 00 00
       0.0 0.0 0.0 0.0
0003f0 00 00 00 00 00 00 00 00 00 00 00 00 00 00 00 00
       0.0 0.0 0.0 0.0

exp_avg_sq f4 [60, 8]
000000 30 18 b2 31 63 a3 3d 36 72 ed 00 3c 6c c7 d6 31
       5.1832316e-09 2.8258298e-06 0.007869111 6.2508914e-09
000010 86 63 53 35 41 50 53 35 22 48 4c 35 27 0f 4c 35
       7.874845e-07 7.872041e-07 7.610089e-07 7.601797e-07
000020 78 36 02 31 bc d1 8c 35 7d e0 39 3b a2 5e 1a 31
       1.8948452e-09 1.0491854e-06 0.0028362565 2.2463742e-09
000030 8f 59 9a 34 f0 4d 9a 34 c2 2f 95 34 c2 06 95 34
       2.8749898e-07 2.8741442e-07 2.778816e-07 2.775833e-07
000040 d4 e5 7a 30 5c 43 de 32 00 00 00 00 00 00 00 00
       9.1276076e-10 2.5874833e-08 0.0 0.0
000050 0c ba 01 34 0c ba 01 34 8e 34 fe 33 65 ec fb 33
       1.2081745e-07 1.2081745e-07 1.1837356e-07 1.1731098e-07
000060 77 62 aa 32 cb 7e 07 35 2f a0 b1 3c b5 ee 81 35
       1.9835381e-08 5.0475927e-07 0.021682827 9.680722e-07
000070 30 87 68 36 b5 86 68 36 cd d1 63 36 d9 d8 61 36
       3.4649383e-06 3.4649104e-06 3.3947756e-06 3.3653835e-06
000080 52 71 a8 2d b9 31 11 33 24 de b7 37 9c 79 91 2a
       1.9149713e-11 3.3805666e-08 2.1918742e-05 2.5841558e-13
000090 d8 b6 16 31 f6 9a 16 31 f6 71 11 31 ab c6 11 31
       2.1931807e-09 2.1915958e-09 2.1165056e-09 2.1213207e-09
0000a0 30 7b d4 31 20 e3 63 36 6d ab 17 3c c3 18 fc 31
       6.184017e-09 3.395784e-06 0.00925718 7.3369804e-09
0000b0 96 07 7c 35 8a f3 7b 35 d7 9a 73 35 63 5a 73 35
       9.3888355e-07 9.385918e-07 9.0749876e-07 9.0656084e-07
0000c0 da 17 e6 28 03 95 46 2b c2 de ce 32 17 f1 1b 2c
       2.5545474e-14 7.0550526e-13 2.4082855e-08 2.2160657e-12
0000d0 16 7f 29 2c 74 7b 29 2c 31 ba 26 2c f5 97 26 2c
       2.4086891e-12 2.4084875e-12 2.3693376e-12 2.3674372e-12
0000e0 3f 3b bf 31 70 41 bf 33 b8 ed d4 3b e2 94 5b 34
       5.565567e-09 8.9060336e-08 0.006498065 2.0450128e-07
0000f0 4f b2 62 35 25 b2 62 35 b6 72 5d 35 5e 06 5b 35
       8.4451034e-07 8.4450795e-07 8.249584e-07 8.1593123e-07
000100 a3 9d 2c 32 9a 54 b8 36 33 e2 79 3c 9c 0c 50 32
       1.004756e-08 5.4934762e-06 0.015251684 1.21100605e-08
000110 25 da cc 35 da c7 cc 35 a5 f6 c5 35 99 be c5 35
       1.5262673e-06 1.5257349e-06 1.4749427e-06 1.4733115e-06
000120 61 4e ea 30 9f ff 7d 35 14 3c 27 3b 45 11 0b 31
       1.7048017e-09 9.462182e-07 0.0025517987 2.0236979e-09
000130 84 d5 8a 34 4d cb 8a 34 8f 30 86 34 0e 0b 86 34
       2.5859856e-07 2.5852424e-07 2.4994776e-07 2.4967488e-07
000140 29 ee 0a 32 c1 3f 94 36 bb 20 49 3c 0d 7d 27 32
       8.086809e-09 4.4181656e-06 0.01227587 9.749113e-09
000150 13 e2 a4 35 54 d3 a4 35 c0 56 9f 35 d1 29 9f 35
       1.2284748e-06 1.2280457e-06 1.1871671e-06 1.1858593e-06
000160 00 00 00 00 00 00 00 00 00 00 00 00 00 00 00 00
       0.0 0.0 0.0 0.0
000170 00 00 00 00 00 00 00 00 00 00 00 00 00 00 00 00
       0.0 0.0 0.0 0.0
000180 00 00 00 00 00 00 00 00 00 00 00 00 00 00 00 00
       0.0 0.0 0.0 0.0
000190 00 00 00 00 00 00 00 00 00 00 00 00 00 00 00 00
       0.0 0.0 0.0 0.0
0001a0 5a fe d3 30 10 44 69 35 18 5c 17 3b 64 3a 2a 2f
       1.5424562e-09 8.689831e-07 0.0023095664 1.5482154e-10
0001b0 03 5b 7b 34 e6 47 7b 34 cd ec 72 34 fc ad 72 34
       2.3409306e-07 2.3402353e-07 2.2624154e-07 2.2601301e-07
0001c0 00 00 00 00 00 00 00 00 00 00 00 00 00 00 00 00
       0.0 0.0 0.0 0.0
0001d0 00 00 00 00 00 00 00 00 00 00 00 00 00 00 00 00
       0.0 0.0 0.0 0.0
0001e0 e3 0a 3a 30 54 cf a4 32 00 00 00 00 00 00 00 00
       6.7681877e-10 1.9186395e-08 0.0 0.0
0001f0 ce 68 c0 33 ce 68 c0 33 03 84 bc 33 4b d2 ba 33
       8.9597606e-08 8.9597606e-08 8.778445e-08 8.699552e-08
000200 01 30 72 30 63 8c d6 32 00 00 00 00 00 00 00 00
       8.8107305e-10 2.497672e-08 0.0 0.0
000210 63 73 fa 33 63 73 fa 33 47 62 f5 33 6b 2e f3 33
       1.1662521e-07 1.1662521e-07 1.1426578e-07 1.1324013e-07
000220 00 00 00 00 00 00 00 00 00 00 00 00 00 00 00 00
       0.0 0.0 0.0 0.0
000230 00 00 00 00 00 00 00 00 00 00 00 00 00 00 00 00
       0.0 0.0 0.0 0.0
000240 64 e4 2e 32 fa 20 b8 36 96 ba 79 3c 44 ec 4f 32
       1.0180063e-08 5.4874663e-06 0.015242239 1.2102706e-08
000250 5b ba cf 35 0d a8 cf 35 c2 cb c8 35 30 9b c8 35
       1.5476938e-06 1.5471611e-06 1.4960463e-06 1.4946327e-06
000260 00 00 00 00 00 00 00 00 00 00 00 00 00 00 00 00
       0.0 0.0 0.0 0.0
000270 00 00 00 00 00 00 00 00 00 00 00 00 00 00 00 00
       0.0 0.0 0.0 0.0
000280 c9 58 f4 2f f7 28 89 34 41 4e 30 3a 34 2d 14 30
       4.4446427e-10 2.5548044e-07 0.0006725528 5.3906324e-10
000290 3e 85 90 33 46 7c 90 33 f4 a4 8b 33 4e 73 8b 33
       6.729759e-08 6.728128e-08 6.502697e-08 6.493666e-08
0002a0 c5 95 9b 31 5f 91 25 36 eb 45 e1 3b 37 b9 bb 31
       4.5281205e-09 2.4671533e-06 0.00687479 5.463473e-09
0002b0 b4 ad 38 35 c5 9c 38 35 40 78 32 35 ae 46 32 35
       6.879811e-07 6.877347e-07 6.6485154e-07 6.641302e-07
0002c0 cf 96 64 30 3b 81 ca 32 00 00 00 00 00 00 00 00
       8.316023e-10 2.3574662e-08 0.0 0.0
0002d0 5c 65 ec 33 5c 65 ec 33 fd 9c e7 33 99 88 e5 33
       1.10080435e-07 1.10080435e-07 1.0785332e-07 1.06884904e-07
0002e0 88 d1 0f 30 95 cf 7e 32 00 00 00 00 00 00 00 00
       5.232086e-10 1.4831945e-08 0.0 0.0
0002f0 ef c1 94 33 ef c1 94 33 0c bf 91 33 50 6f 90 33
       6.9270634e-08 6.9270634e-08 6.78684e-08 6.72577e-08
000300 f4 01 00 00 f4 01 00 00 00 00 00 00 00 00 00 00
       7e-43 7e-43 0.0 0.0
000310 f4 01 00 00 f4 01 00 00 f4 01 00 00 f4 01 00 00
       7e-43 7e-43 7e-43 7e-43
000320 00 00 00 00 00 00 00 00 00 00 00 00 00 00 00 00
       0.0 0.0 0.0 0.0
000330 00 00 00 00 00 00 00 00 00 00 00 00 00 00 00 00
       0.0 0.0 0.0 0.0
000340 00 00 00 00 00 00 00 00 00 00 00 00 00 00 00 00
       0.0 0.0 0.0 0.0
000350 00 00 00 00 00 00 00 00 00 00 00 00 00 00 00 00
       0.0 0.0 0.0 0.0
000360 00 00 00 00 00 00 00 00 00 00 00 00 00 00 00 00
       0.0 0.0 0.0 0.0
000370 00 00 00 00 00 00 00 00 00 00 00 00 00 00 00 00
       0.0 0.0 0.0 0.0
000380 d6 4b 76 32 82 4c c8 34 a8 b1 76 3c 79 07 6b 35
       1.4336328e-08 3.730857e-07 0.015057005 8.7555196e-07
000390 1b 23 1b 36 19 23 1b 36 31 d2 17 36 a3 3e 16 36
       2.3117234e-06 2.311723e-06 2.26231e-06 2.2388201e-06
0003a0 67 26 14 34 ea 3e f8 38 d8 9b 43 3e 85 d4 33 33
       1.3797545e-07 0.0001183728 0.19102418 4.186997e-08
0003b0 26 58 a0 37 ef 39 a0 37 00 dc 9a 37 3d 90 9a 37
       1.9114534e-05 1.9100464e-05 1.8460676e-05 1.8425397e-05
0003c0 a8 13 cf 33 e2 68 18 36 53 96 35 3e f2 d0 22 35
       9.642764e-08 2.2710815e-06 0.17733125 6.065376e-07
0003d0 f4 fc 94 37 60 ff 94 37 c3 f3 8f 37 2a a2 8f 37
       1.7760765e-05 1.7761893e-05 1.7160439e-05 1.7122442e-05
0003e0 00 00 00 00 00 00 00 00 00 00 00 00 00 00 00 00
       0.0 0.0 0.0 0.0
0003f0 00 00 00 00 00 00 00 00 00 00 00 00 00 00 00 00
       0.0 0.0 0.0 0.0

exp_avg f4 [60]
000000 c1 71 22 38 6f d8 c2 b7 75 c6 ce ad e4 69 c3 b8
       3.872975e-05 -2.3227387e-05 -2.3507621e-11 -9.318048e-05
000010 59 d0 67 b6 f6 2d 30 b8 10 a3 c0 b1 9e 12 b2 b7
       -3.4542957e-06 -4.2004474e-05 -5.6064735e-09 -2.1227923e-05
000020 ed 2e 62 38 e6 7a b7 b7 50 e1 4a 38 00 00 00 00
       5.3926302e-05 -2.1872529e-05 4.837039e-05 0.0
000030 00 00 00 00 df dd ae b7 00 00 00 00 b6 0c b2 ad
       0.0 -2.0845733e-05 0.0 -2.0241902e-11
000040 ab 29 cb ad 00 00 00 00 c1 1f 62 38 00 00 00 00
       -2.3096932e-11 0.0 5.3912172e-05 0.0
000050 00 d0 36 b7 85 d9 17 38 40 64 c5 ad 65 8d 9c ad
       -1.0896474e-05 3.6203786e-05 -2.2440827e-11 -1.7797938e-11
000060 04 00 00 00 00 00 00 00 00 00 00 00 00 00 00 00
       6e-45 0.0 0.0 0.0
000070 ff 14 49 b8 eb 38 81 b8 b8 3e b6 b9 00 00 00 00
       -4.794169e-05 -6.161801e-05 -0.00034760474 0.0
000080 87 60 fc b7 00 00 00 00 26 3e 76 b6 42 6e d2 ad
       -3.008569e-05 0.0 -3.6693032e-06 -2.39232e-11
000090 82 e4 62 b8 4b 89 8b b8 6a a0 9a ad c2 f4 ea b7
       -5.4095413e-05 -6.653609e-05 -1.7579011e-11 -2.8008948e-05
0000a0 b1 c3 71 b6 b4 66 89 b8 36 87 25 b9 0f 44 d8 b8
       -3.6025706e-06 -6.551799e-05 -0.00015785996 -0.000103123595
0000b0 00 00 00 00 a3 ff 3a ad 46 aa 3e b8 76 22 d8 b7
       0.0 -1.0629639e-11 -4.545811e-05 -2.5765254e-05
0000c0 de 3c 50 b8 0a eb 5a b8 00 00 00 00 3e ea 25 38
       -4.964775e-05 -5.2194147e-05 0.0 3.955722e-05
0000d0 5e 94 ba 2d 00 00 00 00 00 00 00 00 00 00 00 00
       2.121164e-11 0.0 0.0 0.0
0000e0 00 00 00 00 4c 9f 09 34 8e f3 69 ad 00 00 00 00
       0.0 1.2817071e-07 -1.3298597e-11 0.0

exp_avg_sq f4 [60]
000000 27 56 53 35 c7 4f 9a 34 0c ba 01 34 3b 87 68 36
       7.8728993e-07 2.874278e-07 1.2081745e-07 3.4649408e-06
000010 0d a8 16 31 a0 f7 7b 35 f5 9b 29 2c 57 b2 62 35
       2.1923399e-09 9.386513e-07 2.4102918e-12 8.445108e-07
000020 20 cd cc 35 c5 cc 8a 34 9c d7 a4 35 00 00 00 00
       1.5258884e-06 2.5853493e-07 1.2281703e-06 0.0
000030 00 00 00 00 38 4a 7b 34 00 00 00 00 ce 68 c0 33
       0.0 2.3403197e-07 0.0 8.9597606e-08
000040 63 73 fa 33 00 00 00 00 94 ad cf 35 00 00 00 00
       1.1662521e-07 0.0 1.547322e-06 0.0
000050 b0 7b 90 33 02 a2 38 35 5c 65 ec 33 ef c1 94 33
       6.728021e-08 6.8781094e-07 1.10080435e-07 6.9270634e-08
000060 f4 01 00 00 00 00 00 00 00 00 00 00 00 00 00 00
       7e-43 0.0 0.0 0.0
000070 36 23 1b 36 f0 4c a0 37 b4 fe 94 37 00 00 00 00
       2.3117295e-06 1.9109313e-05 1.776158e-05 0.0
000080 41 3f 02 35 00 00 00 00 2b 18 04 32 61 56 06 34
       4.852082e-07 0.0 7.688906e-09 1.2511147e-07
000090 df 9b d0 35 f8 00 1e 36 c1 18 91 33 92 55 de 34
       1.5542572e-06 2.3544399e-06 6.7565914e-08 4.1412983e-07
0000a0 48 35 02 32 a0 2a 19 36 fc 7a 24 37 15 60 83 36
       7.579111e-09 2.2823588e-06 9.803796e-06 3.9152897e-06
0000b0 00 00 00 00 ce 8f d4 32 2f a0 a4 36 17 b1 ba 34
       0.0 2.4745443e-08 4.9062287e-06 3.477405e-07
0000c0 90 b0 af 35 36 30 c2 35 00 00 00 00 aa bd 5d 35
       1.3089902e-06 1.4468158e-06 0.0 8.2604913e-07
0000d0 54 33 ce 33 00 00 00 00 00 00 00 00 00 00 00 00
       9.601959e-08 0.0 0.0 0.0
0000e0 00 00 00 00 0b 24 bc 30 ea 33 26 33 00 00 00 00
       0.0 1.3689044e-09 3.8697102e-08 0.0

exp_avg f4 [1, 60]
000000 31 48 46 3c dc fe ed 3b 30 d7 d2 ae b6 ce 9d 37
       0.012102173 0.0072630476 -9.5879193e-11 1.8812116e-05
000010 5f 47 93 38 6e 1c ca 3b b0 71 79 36 5f 60 25 37
       7.0228e-05 0.00616794 3.7170066e-06 9.8572045e-06
000020 0f fe 46 3c 2d 99 02 3b e9 b4 19 3c 00 00 00 00
       0.012145533 0.0019927726 0.009381511 0.0
000030 00 00 00 00 bb 56 44 3a 00 00 00 00 48 cf da ae
       0.0 0.00074897305 0.0 -9.950313e-11
000040 1e fa ca ae 00 00 00 00 cd 41 89 3c 00 00 00 00
       -9.230326e-11 0.0 0.01675501 0.0
000050 3f 93 7b 3a 69 66 1e 3c 70 71 f6 ae ab f5 03 af
       0.00095968315 0.009667971 -1.12069354e-10 -1.200166e-10
000060 04 00 00 80 00 00 00 00 00 00 00 00 00 00 00 00
       -6e-45 0.0 0.0 0.0
000070 8e 8c 6e 37 ba 39 25 3a 4e 56 f6 39 00 00 00 00
       1.4218631e-05 0.00063028524 0.00046985078 0.0
000080 f9 de 74 3b 00 00 00 00 6a fe 61 3b a4 f8 dd ae
       0.0037364347 0.0 0.0034483918 -1.0094084e-10
000090 44 12 67 3c 19 72 cb 3b 28 54 f0 ae ca 78 b9 3b
       0.014103476 0.00620867 -1.09288856e-10 0.005660151
0000a0 0e 9a 8f 3b 81 72 18 3c 67 9e bf 37 3d a9 89 37
       0.0043823784 0.009304644 2.2842736e-05 1.641048e-05
0000b0 00 00 00 00 01 39 8c ae 7c 61 f6 36 ec 45 88 3c
       0.0 -6.376589e-11 7.34272e-06 0.016634904
0000c0 88 4c 82 3c 98 3a 13 3c 00 00 00 00 40 7a 36 3b
       0.015905634 0.008986138 0.0 0.0027843863
0000d0 ec fc 02 ab 00 00 00 00 00 00 00 00 00 00 00 00
       -4.653628e-13 0.0 0.0 0.0
0000e0 00 00 00 00 36 aa f8 38 b4 95 b0 ae 00 00 00 00
       0.0 0.00011857266 -8.030146e-11 0.0

exp_avg_sq f4 [1, 60]
000000 93 d3 a7 3d a3 aa f3 3c 60 af 05 36 01 8d f5 34
       0.081946515 0.029744452 1.9920626e-06 4.57374e-07
000010 f1 d2 b3 35 f1 4f ae 3c 10 a2 30 33 6b 93 ac 35
       1.3397931e-06 0.021278353 4.112559e-08 1.2857903e-06
000020 f9 cc a7 3d 34 3d 14 3b 6a 3f 49 3d 00 00 00 00
       0.08193392 0.0022619488 0.049132742 0.0
000030 00 00 00 00 bc 81 95 39 00 00 00 00 fb fa 11 36
       0.0 0.00028516154 0.0 2.1752774e-06
000040 80 1d f7 35 00 00 00 00 c5 c0 1e 3e 00 00 00 00
       1.841152e-06 0.0 0.15503223 0.0
000050 7a 46 15 3a 7e f9 58 3d 1d 15 36 36 54 7d 50 36
       0.0005694401 0.05297231 2.7132403e-06 3.1067366e-06
000060 f4 01 00 00 00 00 00 00 00 00 00 00 00 00 00 00
       7e-43 0.0 0.0 0.0
000070 73 69 77 35 29 17 12 39 53 13 34 38 00 00 00 00
       9.216812e-07 0.00013932273 4.293334e-05 0.0
000080 1b 74 07 3c 00 00 00 00 73 2f ea 3b e3 22 16 36
       0.008267428 0.0 0.0071467697 2.2372049e-06
000090 b6 09 e5 3d 98 80 b2 3c 9d 98 2d 36 02 9e 9a 3c
       0.11183493 0.021789834 2.5867841e-06 0.018874172
0000a0 b0 82 44 3c f2 17 4b 3d 4f 23 a8 34 65 c7 1d 32
       0.011994049 0.049583383 3.131813e-07 9.18394e-09
0000b0 00 00 00 00 a8 8d 70 35 db f4 e2 32 1b ae 1d 3e
       0.0 8.9613104e-07 2.642121e-08 0.15398447
0000c0 f8 65 11 3e be d3 36 3d 00 00 00 00 b6 00 8e 3b
       0.14199054 0.044635527 0.0 0.004333581
0000d0 81 fe 82 2f 00 00 00 00 00 00 00 00 00 00 00 00
       2.3827698e-10 0.0 0.0 0.0
0000e0 00 00 00 00 20 53 b3 37 cf ba bc 35 00 00 00 00
       0.0 2.1377171e-05 1.406146e-06 0.0
