src/compiled/nn_model.pth.tar (torch, 12426 bytes, 9 tensors)

layer1.weight f4 [60, 8]
000000 80 4e 7e bc 8d 00 9a 3e 04 53 80 3e 33 f3 ad be
       -0.015521646 0.30078545 0.25063336 -0.3397461
000010 6c db cb 3e 24 be 89 3e e7 51 05 bd e5 c0 35 3a
       0.39815843 0.26902878 -0.03254881 0.00069333456
000020 ce cb 46 3e 91 6a 81 3e 9f 0e f2 3b 45 95 c1 bd
       0.19413683 0.25276616 0.007386997 -0.09452299
000030 81 67 97 3d 26 c2 93 be fe 61 4b be 75 12 d4 bd
       0.07392789 -0.2885906 -0.198616 -0.10355083
000040 a2 31 85 be c9 21 2a bd 8a 53 2b be 98 59 af bd
       -0.2601443 -0.041536126 -0.16731086 -0.085620105
000050 59 ed ef bb bc 2a 1b be 9e e6 11 be 57 01 60 3e
       -0.007321995 -0.1515302 -0.1424813 0.21875511
000060 90 4f 21 3e f3 26 96 3e 72 d6 28 bd cf 0e 35 3e
       0.15753007 0.2932659 -0.041220136 0.1768143
000070 68 81 78 be fe 70 88 bc f6 1b c6 3e 63 ce 2b 3e
       -0.24268115 -0.016655441 0.38693208 0.16777949
000080 d8 e4 ae 3d 7b e6 64 3e 16 c0 33 3e 19 a6 9c 3d
       0.08539742 0.22353546 0.17553744 0.07648868
000090 d6 97 b4 be 46 16 15 be 15 2a 2f be 63 32 b5 bd
       -0.35272092 -0.14559278 -0.17105897 -0.08847501
0000a0 c9 2d 84 3e 36 f3 f5 3c 40 de 96 3e ee 02 a7 3c
       0.2581618 0.030023199 0.29466438 0.02038714
0000b0 2a 63 39 bd 4f fb 25 3e 61 03 3d be 71 4e 80 be
       -0.045260586 0.16209148 -0.1845832 -0.25059846
0000c0 88 37 8d be 10 a8 45 be 17 cb 95 3e 56 87 65 be
       -0.2758143 -0.19302392 0.29256508 -0.22414908
0000d0 34 d9 c9 3e cf 26 0a be 0c ac 9d 3e 74 31 6a bd
       0.39423525 -0.13491367 0.30795324 -0.05717607
0000e0 35 1a b9 3e a0 6f a8 bd 12 3f 0e be 90 f8 80 3e
       0.36152807 -0.08224416 -0.13891247 0.25189638
0000f0 8b f3 bd bd 52 91 9a be 08 c3 81 bc d0 b6 20 be
       -0.09274968 -0.30188996 -0.015840068 -0.15694737
000100 88 de 45 be d4 bb 88 3c 41 8a 13 be 59 6e 94 be
       -0.1932317 0.016691126 -0.14408208 -0.2899044
000110 ed d5 8f 3e 67 3d a7 3e 8d 5d 86 3e 97 2b 41 be
       0.280929 0.32664034 0.2624325 -0.18864284
000120 fe bd fc bd e9 87 c6 3e 0e e8 62 3e e6 c8 97 3e
       -0.12340926 0.38775566 0.22158834 0.2964546
000130 10 df d1 3d 2e 41 e8 bb 8e 05 3b be 30 b8 39 be
       0.10247624 -0.007087848 -0.18263838 -0.18136668
000140 d0 81 18 3e c8 ca 83 3e 45 17 5a be a3 59 57 be
       0.1489327 0.25740647 -0.21297939 -0.21030287
000150 94 e9 90 3e aa 59 8e 3d fc 59 5d 3e d1 89 d0 3e
       0.28303206 0.06950696 0.21616358 0.40730146
000160 72 ec 9c be 95 1a ec 3d 3f f2 82 bd 9f c1 85 3e
       -0.30649143 0.115285076 -0.06393861 0.26124284
000170 89 8a 1d 3e 0d d4 ad 3d 55 50 e5 be 54 49 88 be
       0.15384878 0.08487711 -0.4478785 -0.26618445
000180 30 f6 91 3e b2 b1 34 3e 9d f9 75 3e b2 8c 3c 3e
       0.2850814 0.1764591 0.24021001 0.18413046
000190 68 f5 22 be 5b 16 db 3e 6a be c6 3e 6c 76 2d 3e
       -0.15913928 0.42790493 0.3881715 0.16939706
0001a0 b1 00 84 bc b8 07 9a 3e e0 8b 21 3e b9 8b 8e be
       -0.016113611 0.30084014 0.15776014 -0.27840975
0001b0 c9 4d c1 3c 0e 66 85 be d5 c7 be 3d 91 99 6d be
       0.023596661 -0.26054424 0.09315459 -0.23203112
0001c0 f7 ae 04 be 23 42 a2 3b d6 db 98 3c 69 d0 b0 bd
       -0.12957369 0.004951732 0.018659513 -0.08633501
0001d0 8e 52 62 3e dd 9c 92 3e cb 03 81 be 82 a1 b4 3c
       0.22101805 0.28635302 -0.25198206 0.02204967
0001e0 38 60 dd bd 2a 77 1f 3d 21 be 0e be 34 c7 ac be
       -0.10809368 0.038932003 -0.13939716 -0.3374573
0001f0 be f7 ad be 45 2f 1a be f6 21 74 bd d7 d9 24 3e
       -0.33978075 -0.15057094 -0.0596027 0.16098724
000200 37 6b e3 bd 45 ee 4c bd 3e fe 02 bd 0c 51 28 3e
       -0.11104434 -0.05003192 -0.031980745 0.16437167
000210 e6 53 8c 3e 05 aa b9 bd 64 05 54 3e 60 da 93 be
       0.2740776 -0.09065632 0.20705181 -0.28877544
000220 7d 3e 89 3e 51 ea cd bd 85 ed 96 3d 97 39 46 be
       0.26805487 -0.10054458 0.07369522 -0.19357906
000230 42 c7 86 3e a7 49 8f be 5d d8 97 bd f6 d4 6b 3d
       0.26323897 -0.2798588 -0.07414315 0.057576142
000240 03 e3 80 be 41 67 5b 3e 2c c2 6d be d6 24 7f bc
       -0.25173196 0.21426107 -0.23218602 -0.015572747
000250 78 b2 eb 3d 22 21 95 3e a1 c0 92 bd c3 03 b4 3e
       0.115086496 0.2912684 -0.07165647 0.3515912
000260 d6 a3 73 be 0d 6e 0f 3e ce 2a 33 be 71 7a 2b 3e
       -0.23792967 0.14006825 -0.17496797 0.16745926
000270 55 85 5d bd e4 ae 7c be 7b 4b b8 3e 75 a8 73 3e
       -0.054082233 -0.2467609 0.35995087 0.2379473
000280 3e 68 88 be b6 27 8b 3e ff 1a 8d 3d f6 26 4d 3e
       -0.2664203 0.27178735 0.06889915 0.20034394
000290 22 b9 a2 be 87 4a 8c 3e bf 98 9d 3e d3 0a 2b be
       -0.3178187 0.2740061 0.307806 -0.16703348
0002a0 89 d2 4e be e8 3a 77 bd 46 47 5a be 65 e5 67 3c
       -0.201975 -0.06035891 -0.21316251 0.014153813
0002b0 5e 3c 40 3c 86 f7 6c be d3 4c 13 3d 0a b8 73 3c
       0.011733143 -0.23141298 0.035961937 0.014875421
0002c0 00 5c 5c 3e cc 00 b9 3e 80 e3 8b be ab 5f 2a 3e
       0.2151947 0.3613342 -0.27322006 0.16638057
0002d0 67 1e 93 3e 6b f6 05 3d 0a f3 d1 3d 27 29 3a 3e
       0.28734133 0.032705706 0.10251434 0.18179761
0002e0 6d c7 84 3e 46 55 fd bc 29 63 55 bc 5d 27 c9 3d
       0.259334 -0.03092445 -0.01302413 0.09821961
0002f0 c5 5b 2a ba 51 1f 50 be e2 84 8f be f1 4b 74 3d
       -0.000649866 -0.20324446 -0.2803107 0.059642736
000300 b3 7b 3c be 2c 3a c1 3e 80 12 8b be 2f 0d 61 be
       -0.18406563 0.37739694 -0.27162552 -0.21977685
000310 48 68 be 3d 9e 1a 9b bd 77 87 c0 be df e5 d3 be
       0.09297234 -0.07573436 -0.3760335 -0.41386315
000320 70 28 ca bd 79 1e 9e be 8c 4c 96 be b7 7f 20 be
       -0.09870994 -0.30882624 -0.29355276 -0.1567372
000330 fa 68 da 3e 1b 51 11 3e 38 18 57 3e 17 3c d7 3e
       0.42658216 0.14191096 0.21005332 0.42038032
000340 3b 86 91 3e 6c 4d 3c bd af a8 cb 3c cb b5 f9 3d
       0.28422722 -0.045972273 0.024860708 0.121928774
000350 cd ef b7 bd fa a7 36 3e d8 fd 70 3e b9 43 d9 bd
       -0.08981285 0.17837515 0.23534334 -0.1060862
000360 24 dd 90 3e e9 0c 4c bd c7 a2 88 3e 59 82 2b be
       0.28293717 -0.049817 0.2668669 -0.16748942
000370 a0 29 92 be 05 e6 31 bd 77 31 44 bb d2 9e 66 bd
       -0.28547382 -0.043432254 -0.002993671 -0.056303807
000380 4e e3 a8 3e e5 8e c5 be 7a a4 2c 3e ee 95 a2 3e
       0.3298592 -0.38585582 0.16859618 0.31755012
000390 e5 39 98 be 65 c4 8b 3e d3 dc 3a 3e 89 f6 74 be
       -0.2973167 0.27298275 0.182483 -0.2392217
0003a0 03 f2 ea bd ad 97 3e be a5 a3 46 bd 53 b3 67 be
       -0.11471941 -0.18612547 -0.048495907 -0.22627
0003b0 1f 15 cf 3e 61 7e 5e bb 98 11 47 be 9a 8a ff bc
       0.40445802 -0.003394984 -0.19440305 -0.03119402
0003c0 f0 81 26 be b6 2e cb ba 09 bc fd bd 00 0c e9 3c
       -0.16260505 -0.0015501592 -0.123893805 0.028448105
0003d0 97 ff 3b b9 04 9c 4f be 91 85 b5 bd 32 33 9d 3e
       -0.00017928924 -0.20274359 -0.088633664 0.3070312
0003e0 4f 77 04 3b 45 b5 63 be 5f 28 c9 bd f7 cd 94 be
       0.0020212715 -0.22237118 -0.09822153 -0.2906339
0003f0 7f 15 d6 3e da 8f 4c 3e 54 3b 83 3c 19 e0 b9 bc
       0.41813275 0.1997675 0.0160195 -0.022689866

layer1.bias f4 [60]
000000 31 12 28 3e e5 45 3c 3e f9 1a 18 bd 84 54 c5 3e
       0.1641319 0.18386038 -0.037135098 0.38541043
000010 37 83 97 be 0c 56 db 3e d5 ae 89 bd f0 eb a0 3c
       -0.29592296 0.42839086 -0.067228 0.019643754
000020 55 ad 4b 3d f4 31 8d be 52 12 aa 3e e2 ce 0e 3e
       0.04972585 -0.27577174 0.33217102 0.13946107
000030 ee a2 b0 3d d3 b7 5c 3e c1 03 20 be 31 f5 32 bd
       0.08624826 0.21554498 -0.15626432 -0.043690864
000040 38 fd 59 3e e9 b7 61 bc 3a e0 70 3e 3a c4 9b 3e
       0.21288002 -0.013776758 0.23523036 0.30423146
000050 35 71 a3 be ba 6f 99 3e ee f4 af 3b 5d 37 a8 be
       -0.31922308 0.29968053 0.005369774 -0.3285474
000060 a3 22 16 3e c1 ee a2 3e 6d cf b0 be 3f 9e 4b 3d
       0.1466165 0.3182278 -0.34533253 0.049711462
000070 14 66 64 3e 2c b6 80 3e e0 ac 4c be 33 c3 0d 3e
       0.22304565 0.25138986 -0.19987822 0.13843994
000080 38 8d c8 3a 0c 83 81 be 40 6e 91 be 8c cc 8a 3d
       0.0015300876 -0.25295293 -0.28404427 0.067772955
000090 60 2b 2a 3c ca 44 26 3e b6 5d 32 bd 61 b4 cd 3e
       0.010386318 0.16237178 -0.0435464 0.4017668
0000a0 d7 9c 34 3e a7 e9 7e bc 46 0b af 3e 8a 31 40 be
       0.17637955 -0.015558637 0.34188288 -0.18768898
0000b0 f7 17 59 3e 2a 49 23 be ed 4e 22 be 90 51 9f be
       0.21200548 -0.15945879 -0.1585042 -0.31116915
0000c0 eb e3 c4 3e 06 1c 13 be e0 55 1c be 56 d8 c1 3d
       0.38455138 -0.14366159 -0.15267134 0.09465091
0000d0 79 1f c7 3e 27 45 6f bb d0 c0 49 3e 12 c1 83 3c
       0.388912 -0.0036509724 0.19702458 0.016083274
0000e0 0c 5c f8 3d d2 46 51 3e e4 ab 3f 3e 37 9e 33 3e
       0.121269315 0.20437172 0.18717915 0.17540823

output.weight f4 [1, 60]
000000 36 e8 2d be d1 4a 45 3d 9e 1a a4 3d bd 39 31 be
       -0.16983113 0.048167054 0.08012889 -0.17307182
000010 fb 7f 15 3d 72 9d 08 be 3c c6 7b be 75 e9 5b 3d
       0.036499005 -0.1334131 -0.24587339 0.05368944
000020 fc 1b 3b be e0 1e 22 be 95 fa e2 bd b9 0b 95 bd
       -0.18272394 -0.1583209 -0.11082951 -0.072776265
000030 13 49 01 be 0d 07 15 3d 92 ca 67 be 28 c0 db 3d
       -0.12625532 0.036383677 -0.22635868 0.1073001
000040 20 c1 f9 bd fc e8 66 3d 9d 76 32 be 2b 38 66 be
       -0.12195039 0.056374535 -0.1742806 -0.22482364
000050 87 fb 16 3c 56 b9 be 3c 7b 7c 38 be c4 47 43 3d
       0.009215242 0.023281734 -0.18016236 0.047675863
000060 76 d1 91 bd b4 86 54 be 85 e0 b2 3d d8 71 a1 3d
       -0.0712003 -0.2075451 0.0873423 0.07883042
000070 37 b1 2b bd 13 e0 11 be f9 73 94 bd cd ae 1f be
       -0.041917052 -0.14245634 -0.072486825 -0.15594025
000080 d1 8a 05 be 22 85 26 be c7 f4 ca bd 8b 6d f9 bd
       -0.13041236 -0.16261724 -0.09909969 -0.12179097
000090 04 26 b1 3c 72 c6 40 be 0b 58 cf 3a 77 7b 51 be
       0.021624573 -0.18825701 0.0015819086 -0.20457254
0000a0 31 ac e9 bd c4 7b d3 3d 9c 45 4f bd 22 90 c2 bd
       -0.11409796 0.10326341 -0.050603494 -0.095001474
0000b0 cf 5b a2 3d da 13 3a be be de 20 be 54 d0 35 3c
       0.07927667 -0.18171635 -0.1570997 0.011097033
0000c0 ba 17 00 be 0d e7 0d be f4 f0 a4 bd 66 fc 42 be
       -0.12509051 -0.1385767 -0.08053771 -0.19041595
0000d0 fa 9e 55 be 01 d4 4b bd 14 40 10 3d 01 a2 d1 bd
       -0.20861426 -0.04976273 0.03521736 -0.10235978
0000e0 ea d9 a6 3d b6 ca 61 3d 6f 59 3c be ef c6 5c be
       0.081470326 0.05512496 -0.18393491 -0.21560262

exp_avg f4 [60, 8]
000000 45 b2 9c 39 28 fe 89 ba 17 fa 3b b5 80 0c e1 b7
       0.0002988746 -0.0010528015 -7.002686e-07 -2.6827911e-05
000010 d3 5b 30 b9 d4 c1 30 b9 c2 28 90 39 c2 28 90 39
       -0.00016818875 -0.00016856875 0.00027496187 0.00027496187
000020 aa 8b 36 b9 9e 71 05 3a 56 21 53 35 ef 22 6b 37
       -0.00017408901 0.00050904776 7.8652135e-07 1.4015225e-05
000030 86 c3 3d 39 8f f9 3d 39 2b aa 2e b9 2b aa 2e b9
       0.00018097283 0.00018117412 -0.00016657326 -0.00016657326
000040 5c 25 d4 b7 2b 0f 7b 3b 58 3b 34 36 04 00 00 00
       -2.5289766e-05 0.0038308601 2.6856633e-06 6e-45
000050 99 ba 1b 3a 65 1a 1c 3a ec f0 8f ba ec f0 8f ba
       0.0005940586 0.0005954861 -0.0010981834 -0.0010981834
000060 19 d7 0b 3a 10 ae be ba 80 59 c1 b3 b2 d0 1e b8
       0.0005334481 -0.0014547724 -9.003543e-08 -3.7864498e-05
000070 44 5e 25 b8 20 4d 26 b8 53 5a a4 b8 53 5a a4 b8
       -3.9426857e-05 -3.9649312e-05 -7.8369536e-05 -7.8369536e-05
000080 df 89 6a b9 ac 5a 77 39 23 51 c5 34 26 0e 90 37
       -0.0002236734 0.00023589534 3.6753144e-07 1.7172726e-05
000090 03 5b c0 38 c5 87 c0 38 f1 49 35 b9 f1 49 35 b9
       9.172226e-05 9.1805625e-05 -0.0001728905 -0.0001728905
0000a0 e3 da 61 39 16 70 44 ba 41 da 14 b5 45 4a 01 b8
       0.00021539214 -0.0007493509 -5.54519e-07 -3.0825166e-05
0000b0 98 8f 0a b9 c0 d8 0a b9 32 19 52 39 32 19 52 39
       -0.00013214198 -0.00013241451 0.00020036547 0.00020036547
0000c0 8a dc 85 39 66 82 56 b9 cd 92 8c 35 d9 3d d7 b7
       0.0002553205 -0.00020457208 1.0473537e-06 -2.5658797e-05
0000d0 b8 b1 72 39 3b 51 72 39 14 88 e2 b8 14 88 e2 b8
       0.00023145124 0.00023109179 -0.00010801866 -0.00010801866
0000e0 dc 77 94 b9 ce 8f 8f 39 69 4d 02 b5 07 37 3d 38
       -0.00028318062 0.00027382228 -4.854142e-07 4.511236e-05
0000f0 00 dd bf b8 c9 44 bf b8 51 9e 14 b9 51 9e 14 b9
       -9.148754e-05 -9.120402e-05 -0.00014173357 -0.00014173357
000100 e6 cb 95 37 99 2f 25 bb 2d 03 fa b5 04 00 00 00
       1.7857132e-05 -0.0025205372 -1.8627376e-06 6e-45
000110 ad 80 d7 b9 ae 82 d7 b9 2d 5f 48 3a 2d 5f 48 3a
       -0.00041103867 -0.0004110536 0.0007643577 0.0007643577
000120 71 c4 22 38 26 26 54 ba 9b d3 4e b5 26 e7 ad b7
       3.880676e-05 -0.0008092843 -7.7048907e-07 -2.0730844e-05
000130 26 17 35 b9 31 43 35 b9 8c 59 91 39 8c 59 91 39
       -0.00017270129 -0.00017286536 0.00027723273 0.00027723273
000140 80 0a 97 b4 60 7b ed b9 ce dd 29 b4 df c4 4d b7
       -2.8133582e-07 -0.00045296084 -1.5820044e-07 -1.226479e-05
000150 3f 78 12 b8 f2 63 13 b8 ac d1 be 37 ac d1 be 37
       -3.49211e-05 -3.5140612e-05 2.2747401e-05 2.2747401e-05
000160 b4 e6 88 36 3a 7d 79 b9 07 c1 68 b4 25 35 27 b7
       4.079973e-06 -0.00023793141 -2.1676907e-07 -9.966349e-06
000170 46 e9 4b b8 43 48 4c b8 bc a5 ac 38 bc a5 ac 38
       -4.8616224e-05 -4.870469e-05 8.2324696e-05 8.2324696e-05
000180 a5 9b b4 39 d5 59 84 ba c2 93 3e b4 7d 0d df b7
       0.0003444824 -0.0010097573 -1.7748883e-07 -2.6589953e-05
000190 24 37 34 b8 19 da 34 b8 70 8e f6 b7 70 8e f6 b7
       -4.2966698e-05 -4.3118464e-05 -2.9391813e-05 -2.9391813e-05
0001a0 35 f8 a2 b8 a3 3e d3 3a 99 52 32 36 8d d0 9c 1f
       -7.770994e-05 0.001611669 2.6572145e-06 6.641359e-20
0001b0 de 68 1b 3a 43 94 1b 3a f7 8a 0e ba f7 8a 0e ba
       0.0005928407 0.00059348735 -0.00054375775 -0.00054375775
0001c0 4b 02 03 38 15 0d 03 bb ab 26 df b5 6c 4d 55 b8
       3.123497e-05 -0.0019996811 -1.6626049e-06 -5.0855262e-05
0001d0 3c d6 c3 b9 d3 fb c3 b9 00 0a 31 3a 00 0a 31 3a
       -0.00037352915 -0.00037380922 0.0006753504 0.0006753504
0001e0 28 64 12 2d d4 3b 27 2f ae e3 4c b1 00 00 00 00
       8.321378e-12 1.5209817e-10 -2.9815328e-09 0.0
0001f0 48 66 a4 2e 48 66 a4 2e 35 4b 76 30 35 4b 76 30
       7.4760254e-11 7.4760254e-11 8.9601154e-10 8.9601154e-10
000200 b4 ba 0b b5 9d ae 6d b9 d0 37 12 35 88 cd ba b7
       -5.2053224e-07 -0.0002266713 5.4470456e-07 -2.2268636e-05
000210 db fa e9 38 1a 43 e9 38 58 38 a5 38 58 38 a5 38
       0.00011157031 0.000111228044 7.878308e-05 7.878308e-05
000220 31 89 03 ba 99 45 0c 3a 1b 27 3e 35 05 6c 43 22
       -0.00050176965 0.0005350947 7.083742e-07 2.6484613e-18
000230 99 06 3d 39 2d af 3d 39 b8 31 aa b9 b8 31 aa b9
       0.00018026902 0.00018089703 -0.0003246197 -0.0003246197
000240 60 a7 a7 37 43 a6 97 ba f3 97 8d b5 41 8f 4f b8
       1.9985891e-05 -0.0011569936 -1.0549542e-06 -4.948606e-05
000250 1a f7 78 b9 b3 6a 79 b9 92 e5 d2 39 92 e5 d2 39
       -0.00023743176 -0.00023786239 0.00040225365 0.00040225365
000260 21 64 9f b8 15 17 39 b9 77 0e 21 36 69 c1 4a b8
       -7.600361e-05 -0.00017651574 2.399929e-06 -4.834068e-05
000270 57 72 0a 3a 29 39 0a 3a 76 6c 0f b9 76 6c 0f b9
       0.000528132 0.00052728 -0.00013677948 -0.00013677948
000280 f8 16 92 b8 f0 3a dd 3a 2b 08 3f 36 d3 19 a2 1f
       -6.966101e-05 0.0016878527 2.8465972e-06 6.865239e-20
000290 8c 67 24 3a 65 94 24 3a 0e a7 15 ba 0e a7 15 ba
       0.0006271533 0.0006278216 -0.0005708792 -0.0005708792
0002a0 13 2f 34 b8 00 5c 8f 3b 98 14 81 36 a9 2b 45 39
       -4.2959186e-05 0.004374981 3.846897e-06 0.00018803649
0002b0 59 e0 5e 3a cd 4f 5f 3a d8 78 be ba d8 78 be ba
       0.00085020583 0.0008518666 -0.0014531864 -0.0014531864
0002c0 16 75 59 39 9f 26 3f ba be 7b 97 b4 f4 dc 7f b7
       0.0002073835 -0.0007291827 -2.8215976e-07 -1.5250629e-05
0002d0 98 f0 8e b8 f0 5a 8f b8 04 04 92 38 04 04 92 38
       -6.815902e-05 -6.83571e-05 6.9625705e-05 6.9625705e-05
0002e0 4e 7b e8 b9 80 e6 26 38 42 c1 2e b3 c0 b7 14 38
       -0.00044342357 3.9792154e-05 -4.06883e-08 3.545708e-05
0002f0 c6 0c 69 37 95 c7 69 37 4b c0 ad 37 4b c0 ad 37
       1.3890856e-05 1.3934351e-05 2.071275e-05 2.071275e-05
000300 08 55 0f 37 a6 e7 0f ba 56 a6 f3 b4 ac 44 69 b7
       8.543262e-06 -0.00054895354 -4.5383302e-07 -1.3903871e-05
000310 8a a3 d6 b8 53 10 d7 b8 2f 5e 42 39 2f 5e 42 39
       -0.00010234777 -0.000102550395 0.00018536368 0.00018536368
000320 a2 df 07 b8 ad a7 1c b9 74 68 75 35 de c0 c6 b7
       -3.2394782e-05 -0.00014939783 9.142161e-07 -2.369325e-05
000330 c9 e2 52 39 09 88 52 39 a7 b7 35 b8 a7 b7 35 b8
       0.00020111645 0.00020077838 -4.3324802e-05 -4.3324802e-05
000340 bf 79 fe b9 6d 44 21 39 eb 30 e3 b5 2e 16 6c 38
       -0.00048537363 0.00015379647 -1.6927055e-06 5.628744e-05
000350 0e 70 b8 b9 0e 70 b8 b9 7b c9 e3 38 7b c9 e3 38
       -0.00035178702 -0.00035178702 0.00010861732 0.00010861732
000360 76 a2 91 b9 5a 1d 23 38 9e 26 9b b3 2b 77 e1 21
       -0.00027777598 3.8889564e-05 -7.2247744e-08 1.5278137e-18
000370 28 3a d1 b5 60 8f cd b5 a3 59 04 38 a3 59 04 38
       -1.5588639e-06 -1.5315418e-06 3.1554733e-05 3.1554733e-05
000380 08 da c3 38 16 3f aa b9 b1 ea 80 b4 12 d8 5f b7
       9.338936e-05 -0.0003247193 -2.4012618e-07 -1.3342144e-05
000390 e6 07 70 b8 b5 86 70 b8 ac 06 b6 38 ac 06 b6 38
       -5.7227815e-05 -5.7345915e-05 8.679679e-05 8.679679e-05
0003a0 47 44 62 b8 d7 a2 9b b9 31 77 9e 35 12 18 22 a1
       -5.3946187e-05 -0.0002968523 1.1806607e-06 -5.491959e-19
0003b0 06 bb 88 39 80 71 88 39 af 1b 0c 39 af 1b 0c 39
       0.00026079285 0.00026024505 0.00013361753 0.00013361753
0003c0 f8 f0 67 31 b6 2a 72 32 80 52 5c 30 1d e0 c1 af
       3.37519e-09 1.4095965e-08 8.0152773e-10 -3.5265738e-10
0003d0 79 6a 0c b3 79 6a 0c b3 9d fd e9 b2 9d fd e9 b2
       -3.2693126e-08 -3.2693126e-08 -2.72401e-08 -2.72401e-08
0003e0 d7 78 84 b8 ac 1d fb b9 b3 96 ab 35 04 00 00 00
       -6.316759e-05 -0.00047896558 1.2784352e-06 6e-45
0003f0 60 13 93 39 23 b6 92 39 61 eb 46 39 61 eb 46 39
       0.0002805246 0.00027982992 0.00018970437 0.00018970437

exp_avg_sq f4 [60, 8]
000000 b4 1d 4f 38 1d cb cc 37 2d 38 cb 2e 4c d0 e5 34
       4.938031e-05 2.4413277e-05 9.24135e-11 4.280613e-07
000010 2f d7 7f 36 75 a3 7f 36 53 b8 2f 37 53 b8 2f 37
       3.8123214e-06 3.8093106e-06 1.0473729e-05 1.0473729e-05
000020 27 c7 66 37 63 9c df 36 dc c0 ff 35 de 9b 11 34
       1.3755437e-05 6.6641237e-06 1.905511e-06 1.3560881e-07
000030 88 0a 76 35 4d f1 75 35 1d 03 50 36 1d 03 50 36
       9.1657466e-07 9.162075e-07 3.0996227e-06 3.0996227e-06
000040 6a af 8b 35 31 9c af 39 4f 3d ca 38 f4 01 00 00
       1.0407359e-06 0.00033494973 9.64353e-05 7e-43
000050 1a 4a 36 38 61 1d 36 38 f2 fa a7 38 f2 fa a7 38
       4.3461194e-05 4.3419543e-05 8.009923e-05 8.009923e-05
000060 81 2a 3d 39 b9 93 5a 38 82 13 9d 2f bd 41 c2 36
       0.00018040279 5.2112828e-05 2.8571995e-10 5.7893035e-06
000070 8f 19 51 37 0c 14 51 37 3b 40 0e 37 3b 40 0e 37
       1.2463322e-05 1.2462038e-05 8.478814e-06 8.478814e-06
000080 9b 31 de 37 e2 a9 c9 36 4a 96 73 36 76 25 86 34
       2.6487562e-05 6.0100438e-06 3.6297301e-06 2.49867e-07
000090 8c 40 88 35 cf 3a 88 35 f4 88 c2 36 f4 88 c2 36
       1.0151575e-06 1.0149905e-06 5.797594e-06 5.797594e-06
0000a0 67 0c d5 37 87 7e 57 37 fe 1f 9c 2e 3c 55 c1 35
       2.5397354e-05 1.2844458e-05 7.0997416e-11 1.4404427e-06
0000b0 27 80 54 36 cc 65 54 36 71 35 ce 36 71 35 ce 36
       3.1665056e-06 3.1649715e-06 6.1455e-06 6.1455e-06
0000c0 c5 27 1a 38 4b c7 0a 36 82 dc e4 2e e3 4b 52 36
       3.67535e-05 2.0679606e-06 1.040741e-10 3.133661e-06
0000d0 74 8f a8 36 7a 7b a8 36 5d ea b4 35 5d ea b4 35
       5.0234903e-06 5.0211647e-06 1.3479254e-06 1.3479254e-06
0000e0 a2 f2 63 38 f8 3b a7 36 4d 43 fd 36 f6 2c 4e 36
       5.4346987e-05 4.983969e-06 7.5478224e-06 3.0722563e-06
0000f0 88 c9 9c 36 a6 bc 9c 36 51 2c 2e 37 51 2c 2e 37
       4.6726236e-06 4.671124e-06 1.0381526e-05 1.0381526e-05
000100 7f 35 f2 35 5b 26 19 39 ba 1f 30 38 f4 01 00 00
       1.8045974e-06 0.00014605506 4.1991218e-05 7e-43
000110 48 a3 a5 37 33 99 a5 37 ea 71 21 38 ea 71 21 38
       1.9745567e-05 1.9740872e-05 3.8491482e-05 3.8491482e-05
000120 c7 49 c8 35 58 0d 82 37 39 4c 7a 2e 45 f2 17 35
       1.4922633e-06 1.5503421e-05 5.6911118e-11 5.660443e-07
000130 25 60 2d 36 68 51 2d 36 45 e5 cd 36 45 e5 cd 36
       2.5834972e-06 2.5826394e-06 6.1361666e-06 6.1361666e-06
000140 27 6a d9 36 a7 c4 b1 36 5b 99 2f 36 3f bc 22 35
       6.4794617e-06 5.2979044e-06 2.6166297e-06 6.0623637e-07
000150 6f 0c b6 35 3f f7 b5 35 f8 48 9d 34 f8 48 9d 34
       1.3563675e-06 1.3557509e-06 2.929662e-07 2.929662e-07
000160 c0 fd 5a 33 0a 8b b7 35 f5 82 f9 2c e8 20 25 34
       5.0987865e-08 1.3675028e-06 7.091545e-12 1.5378794e-07
000170 39 d6 b2 34 79 bf b2 34 80 c1 12 35 80 c1 12 35
       3.331095e-07 3.3294398e-07 5.467082e-07 5.467082e-07
000180 5a 21 ba 38 aa 48 d6 37 d1 36 1f 2f c6 94 3f 36
       8.875383e-05 2.5544625e-05 1.448044e-10 2.8547815e-06
000190 a8 fb d7 36 c6 f6 d7 36 a8 dd 89 36 a8 dd 89 36
       6.436796e-06 6.4362275e-06 4.1087224e-06 4.1087224e-06
0001a0 34 c3 48 35 30 24 91 38 9c a2 a5 37 14 06 0f 28
       7.4789864e-07 6.920879e-05 1.9745254e-05 7.939413e-15
0001b0 fd 9f 00 37 ba 8e 00 37 00 53 94 37 00 53 94 37
       7.666645e-06 7.662626e-06 1.7681625e-05 1.7681625e-05
0001c0 72 59 a3 36 8c 72 bf 38 46 d1 af 2f 03 ea 21 36
       4.8681914e-06 9.128926e-05 3.1981012e-10 2.4127082e-06
0001d0 70 08 79 37 38 f0 78 37 12 0b 10 38 12 0b 10 38
       1.4843521e-05 1.4837882e-05 3.4342585e-05 3.4342585e-05
0001e0 c8 7d 1c 33 fd 27 96 32 63 0d c2 36 00 00 00 00
       3.6435978e-08 1.7480483e-08 5.783209e-06 0.0
0001f0 d0 a3 37 31 60 a0 37 31 ee 7c b0 34 ee 7c b0 34
       2.6723121e-09 2.6721168e-09 3.2873453e-07 3.2873453e-07
000200 60 69 25 36 ba bd 5e 36 57 62 16 2f 66 07 8e 36
       2.4648252e-06 3.3191013e-06 1.3677358e-10 4.232791e-06
000210 5f be db 36 ce a7 db 36 38 62 0b 37 38 62 0b 37
       6.5488707e-06 6.5462436e-06 8.307914e-06 8.307914e-06
000220 ee 01 0d 39 18 94 00 38 0f 96 9c 37 03 82 7c 20
       0.00013447527 3.06555e-05 1.8666526e-05 2.1388248e-19
000230 f9 2a 84 36 bd 1b 84 36 f9 aa cd 37 f9 aa cd 37
       3.9389092e-06 3.9371357e-06 2.451752e-05 2.451752e-05
000240 be 36 27 35 48 57 04 38 e7 fd 12 37 d3 b2 50 36
       6.229201e-07 3.155254e-05 8.761394e-06 3.1098505e-06
000250 3f cc f2 36 44 b1 f2 36 a5 56 36 37 a5 56 36 37
       7.2359394e-06 7.2327985e-06 1.0868219e-05 1.0868219e-05
000260 c1 79 15 37 1b 59 f9 35 f4 a7 2c 38 1f fd 1d 37
       8.90944e-06 1.8577879e-06 4.1164414e-05 9.416864e-06
000270 c3 ed 2b 37 6c e1 2b 37 ee 10 be 35 ee 10 be 35
       1.02477525e-05 1.0244879e-05 1.416103e-06 1.416103e-06
000280 9a 53 59 34 d7 07 99 38 39 b2 ac 37 08 7e 1a 28
       2.0240114e-07 7.297069e-05 2.058699e-05 8.576046e-15
000290 81 82 0d 37 cb 6b 0d 37 37 55 8e 37 37 55 8e 37
       8.43464e-06 8.429352e-06 1.69674e-05 1.69674e-05
0002a0 ea 15 16 36 e8 6b f2 39 d6 d7 08 39 4f 68 5e 38
       2.2364497e-06 0.00046238233 0.00013050376 5.302607e-05
0002b0 ed 59 ea 38 b0 3b ea 38 7d 07 24 39 7d 07 24 39
       0.000111747395 0.00011169107 0.00015643048 0.00015643048
0002c0 9b 7a f4 37 33 1f 70 37 0c 4a 89 36 4e ad 7b 35
       2.914416e-05 1.4312379e-05 4.0915384e-06 9.375698e-07
0002d0 23 b3 30 36 48 ab 30 36 17 59 83 36 17 59 83 36
       2.6330315e-06 2.6325743e-06 3.9144757e-06 3.9144757e-06
0002e0 03 2c ee 38 9a f4 d9 35 39 1f 84 37 40 4d 8f 35
       0.00011356922 1.6238948e-06 1.5750165e-05 1.0676813e-06
0002f0 59 6a cf 35 a0 68 cf 35 3d 94 43 37 3d 94 43 37
       1.5453653e-06 1.5453152e-06 1.165742e-05 1.165742e-05
000300 c0 08 89 34 0f 73 e8 36 76 fd 02 36 1b 70 61 34
       2.5524605e-07 6.9275334e-06 1.9519043e-06 2.0995542e-07
000310 be 53 9a 35 1c 36 9a 35 69 3e 33 36 69 3e 33 36
       1.1498266e-06 1.1489642e-06 2.6709406e-06 2.6709406e-06
000320 6c 3a dc 37 22 5f cf 35 22 cc 63 37 d3 81 46 36
       2.6253249e-05 1.5450389e-06 1.3577783e-05 2.9579867e-06
000330 01 d2 94 36 8b c0 94 36 ed 70 89 35 ed 70 89 35
       4.4351914e-06 4.4331587e-06 1.0240161e-06 1.0240161e-06
000340 ff 32 3c 39 c3 f0 19 36 24 79 d4 37 48 a3 2b 37
       0.00017948075 2.2938918e-06 2.532878e-05 1.0230411e-05
000350 7b 82 58 37 7a 7b 58 37 e3 50 a8 37 e3 50 a8 37
       1.2904983e-05 1.2903352e-05 2.0064826e-05 2.0064826e-05
000360 23 be 3b 38 46 92 1c 35 e7 e2 cf 36 f1 e9 a7 1f
       4.4761353e-05 5.8327385e-07 6.1954956e-06 7.1114275e-20
000370 cd 40 4b 34 ba 40 4b 34 c1 4f 42 36 c1 4f 42 36
       1.8929423e-07 1.8929396e-07 2.8954676e-06 2.8954676e-06
000380 1a fc 9e 36 9a d3 21 36 b1 41 6a 2d 78 f9 90 34
       4.7381154e-06 2.4114038e-06 1.33159464e-11 2.7003603e-07
000390 6a 7f 1f 35 9b 6b 1f 35 fe a4 9a 35 fe a4 9a 35
       5.941753e-07 5.93887e-07 1.1521913e-06 1.1521913e-06
0003a0 cd 0f 56 35 3b e4 a9 36 28 0c e4 2e fe 29 2d 30
       7.9744206e-07 5.063162e-06 1.0370399e-10 6.299671e-10
0003b0 f4 0b 96 36 d7 d2 95 36 74 1e 1e 37 74 1e 1e 37
       4.47174e-06 4.465091e-06 9.424624e-06 9.424624e-06
0003c0 69 4a a5 2e 4e 27 3c 30 e2 fb 20 35 eb a3 4d 31
       7.516549e-11 6.8449857e-10 5.997118e-07 2.9924603e-09
0003d0 96 6f 60 31 96 6f 60 31 a4 06 f2 2f a4 06 f2 2f
       3.265972e-09 3.265972e-09 4.4024262e-10 4.4024262e-10
0003e0 63 31 1e 35 21 9f 2d 37 08 52 6c 38 0d 7c 5e 2d
       5.8931454e-07 1.0348654e-05 5.6343182e-05 1.2646784e-11
0003f0 d4 c4 0a 37 f0 96 0a 37 76 4c 5c 37 76 4c 5c 37
       8.271269e-06 8.260584e-06 1.3130824e-05 1.3130824e-05

exp_avg f4 [60]
000000 3a 4f 21 b9 49 cc 35 39 80 ba 1b 3a b4 4b a6 b7
       -0.0001538367 0.00017337607 0.00059405714 -1.9823994e-05
000010 0a 41 aa 38 53 87 ff b8 1b d6 71 39 46 67 df b8
       8.118346e-05 -0.000121845536 0.00023063312 -0.00010652705
000020 b1 80 d7 b9 20 9a 31 b9 9d f4 13 b8 3d da 47 b8
       -0.00041103878 -0.00016937451 -3.5275345e-05 -4.7648547e-05
000030 2b ec 23 b8 d8 8a 19 3a 80 93 bf b9 be 18 af af
       -3.9082177e-05 0.0005857176 -0.00036540255 -3.1849895e-10
000040 58 9a fc 38 50 29 24 39 73 ff 73 b9 b4 14 0a 3a
       0.00012045045 0.00015655649 -0.00023269448 0.0005267367
000050 8c 67 24 3a 39 e0 5e 3a 08 74 83 b8 01 45 04 b7
       0.0006271533 0.000850204 -6.268179e-05 -7.883879e-06
000060 f1 f7 d1 b8 fa 0b 52 39 26 b5 c2 b9 9f 97 7f b7
       -0.00010012079 0.00020031622 -0.0003713753 -1.5234486e-05
000070 2d 4e 5d b8 25 bb 88 39 b0 a6 0c b3 8e 13 93 39
       -5.2763313e-05 0.00026079375 -3.274789e-08 0.00028052594
000080 92 25 76 b9 1a 09 07 b9 b6 cd 4a 38 85 f9 23 38
       -0.00023474384 -0.00012877994 4.8352136e-05 3.909461e-05
000090 ef e1 f6 38 6c 53 d4 39 94 de 47 3a e9 9e 3c b9
       0.000117722775 0.00040497945 0.0007624414 -0.00017988276
0000a0 d4 fe 06 b8 a9 97 b0 39 29 e3 e1 b8 43 3e 6d b4
       -3.2185417e-05 0.00033682332 -0.00010771148 -2.2094996e-07
0000b0 48 69 26 39 db fe 3d b9 06 4f 70 b9 fe 35 79 39
       0.00015870214 -0.00018119386 -0.00022917622 0.00023766604
0000c0 e8 5c 28 b8 8b de d3 b8 69 5d ab 39 ac c5 a0 b9
       -4.0140847e-05 -0.00010102716 0.00032685258 -0.00030664855
0000d0 0c 59 a2 b8 27 25 bf b7 e6 5b 08 3a af 8f 92 b8
       -7.741348e-05 -2.2786275e-05 0.0005201682 -6.988586e-05
0000e0 b7 c7 86 b9 50 ce b6 b8 8b f4 48 b9 d3 c5 0d 39
       -0.0002570727 -8.716865e-05 -0.00019164586 0.00013520503

exp_avg_sq f4 [60]
000000 5b 41 96 36 b2 1e 92 35 2b 88 38 38 0c 67 68 37
       4.4779567e-06 1.0886781e-06 4.3995835e-05 1.385227e-05
000010 4f 41 ac 35 79 ec 66 36 bf 49 a9 36 6a 68 ac 36
       1.2834006e-06 3.4410316e-06 5.0451777e-06 5.138155e-06
000020 e8 a3 a5 37 82 0f 39 36 a1 9d b6 35 47 85 b8 34
       1.9745858e-05 2.7576175e-06 1.3605933e-06 3.4369643e-07
000030 07 91 eb 36 d9 d2 0b 37 e3 fc 81 37 d1 2b ae 33
       7.020429e-06 8.334137e-06 1.5495758e-05 8.1104766e-08
000040 a9 5a de 36 a8 d1 b5 36 83 f4 f6 36 aa 5e 30 37
       6.62667e-06 5.4186276e-06 7.359836e-06 1.0512458e-05
000050 df 64 0f 37 33 b9 e6 38 d1 3e 3f 36 ee b5 2d 36
       8.54695e-06 0.00011001751 2.8497782e-06 2.5884906e-06
000060 e1 ec a4 35 62 4e 98 36 81 31 6a 37 a7 d5 2b 35
       1.2287893e-06 4.539078e-06 1.3959013e-05 6.401337e-07
000070 7c 3e 2d 35 0e 4c a8 36 9c 6f 60 31 a5 cf 13 37
       6.453845e-07 5.015644e-06 3.2659733e-09 8.810229e-06
000080 a7 cc 7a 37 e7 4b 80 36 d6 fd 8d 35 04 7a 32 35
       1.49488105e-05 3.8235335e-06 1.0579195e-06 6.6487723e-07
000090 d1 3f 4e 36 61 3a 0d 37 bc 71 bb 38 07 4b 17 38
       3.0733538e-06 8.417847e-06 8.9380395e-05 3.607108e-05
0000a0 33 36 0b 37 8f c7 6d 37 ad 13 53 36 91 f8 8e 35
       8.297665e-06 1.4172764e-05 3.1452903e-06 1.0652167e-06
0000b0 7f f2 c3 36 86 35 86 36 1a 17 4c 37 18 a7 f9 35
       5.839683e-06 3.999742e-06 1.2164726e-05 1.8600576e-06
0000c0 87 41 66 37 53 1f 20 36 e6 62 6c 37 94 f5 4a 37
       1.3724325e-05 2.386009e-06 1.4089723e-05 1.2097316e-05
0000d0 f6 56 b2 36 dd 78 19 35 cb eb 11 38 79 f8 98 35
       5.314937e-06 5.717282e-07 3.4790293e-05 1.1397198e-06
0000e0 1e 6c ec 36 5e 62 a6 36 eb 74 0e 37 ad 7b e9 35
       7.0459346e-06 4.958637e-06 8.491082e-06 1.7395847e-06

exp_avg f4 [1, 60]
000000 78 ff a0 3a be 47 9c 39 cc 34 69 39 f3 5d 76 38
       0.0012283167 0.0002980809 0.0002224028 5.8738467e-05
000010 8f 69 f6 b6 b8 28 00 3a fa 7d 82 b9 87 60 40 b9
       -7.34366e-06 0.000488888 -0.00024889392 -0.00018346506
000020 f2 20 31 39 0a bd da 3a 7c b7 a7 39 9d be 91 3a
       0.00016892308 0.0016688418 0.0003198943 0.0011119429
000030 02 42 bb 38 05 22 80 3a b7 b0 27 3a 42 c1 06 2e
       8.92915e-05 0.0009775764 0.0006396877 3.063972e-11
000040 5d 81 4c b9 a6 48 5f b9 41 35 63 3a e6 eb 75 36
       -0.00019503148 -0.00021294001 0.0008667298 3.6645156e-06
000050 8f c3 61 3a 1c 6a 7d 38 77 f1 15 3a 0e d0 9f b9
       0.00086122093 6.0418723e-05 0.000571988 -0.00030481856
000060 44 fb ed 3a 46 35 d2 b9 80 3d f8 b9 46 84 be b9
       0.0018156548 -0.00040094013 -0.00047348067 -0.00036338175
000070 ba 04 ac 39 ec f7 a3 b9 12 4e d8 34 8d c1 ec b9
       0.00032809918 -0.000312745 4.028994e-07 -0.00045157634
000080 e4 44 e7 b8 94 8b 5c 3a d5 07 8f b8 f2 a2 57 b9
       -0.0001102777 0.0008413133 -6.82023e-05 -0.000205647
000090 91 ae 67 b9 69 5d 22 b9 0e 08 a2 38 2e f2 5c 39
       -0.00022094908 -0.00015484322 7.726262e-05 0.00021071054
0000a0 55 6a 02 b9 7b 72 5e 3a 42 22 b2 b8 0a b1 a5 b6
       -0.00012437378 0.0008485687 -8.4940824e-05 -4.9379933e-06
0000b0 b1 a5 90 39 16 a3 db 3a 0f b7 f7 39 8d bf 3f 3a
       0.0002758927 0.0016756977 0.000472479 0.0007314615
0000c0 dc e2 91 b9 94 cb 11 39 d8 39 15 3a 60 f4 72 3a
       -0.0002782558 0.00013904116 0.00056925183 0.0009267982
0000d0 83 09 b5 39 e8 21 d9 39 d8 73 03 3a ac 45 8a 3a
       0.00034530097 0.00041414727 0.00050145155 0.0010549328
0000e0 64 06 74 b9 f1 d8 dc b8 e7 db 88 3a 91 e2 91 b9
       -0.00023272034 -0.00010530826 0.0010441513 -0.0002782536

exp_avg_sq f4 [1, 60]
000000 6c 04 81 38 26 84 dd 37 8d 48 14 37 f9 73 a0 37
       6.152023e-05 2.640679e-05 8.8383795e-06 1.912749e-05
000010 cc 32 b9 37 50 7b b8 38 91 96 49 35 92 1b a5 38
       2.2077373e-05 8.7967725e-05 7.509744e-07 7.8729485e-05
000020 6c 4d b0 36 b4 a3 99 38 45 d1 5b 37 b1 f0 69 38
       5.254222e-06 7.3261006e-05 1.3102142e-05 5.577569e-05
000030 3d b5 19 38 0d 58 fd 37 86 26 98 37 ff 4c 43 35
       3.6646834e-05 3.0200952e-05 1.813775e-05 7.2755205e-07
000040 15 5f 7d 35 82 d7 57 38 0b 73 16 38 78 a6 fe 35
       9.4388207e-07 5.14607e-05 3.586993e-05 1.8972923e-06
000050 99 c3 c7 37 38 48 4e 37 e3 4b 12 38 ff a9 83 38
       2.381373e-05 1.2295372e-05 3.4879788e-05 6.278231e-05
000060 5f 87 e1 38 37 c4 a8 36 0c 6d 7b 38 8f 01 ab 38
       0.00010754051 5.0296326e-06 5.994462e-05 8.154206e-05
000070 44 c3 87 38 38 17 0e 36 ba c1 0f 35 e8 6a 85 36
       6.473673e-05 2.1173164e-06 5.355356e-07 3.9761544e-06
000080 8a f6 e1 36 30 90 7a 38 47 62 2d 37 20 ac 34 35
       6.7342235e-06 5.973893e-05 1.03344855e-05 6.73057e-07
000090 55 17 8f 38 05 37 0c 35 30 c7 50 37 1a 4a 47 37
       6.823117e-05 5.223413e-07 1.2444143e-05 1.1878577e-05
0000a0 58 cc 05 36 86 1e fc 37 cf 85 8b 36 45 09 78 36
       1.9937488e-06 3.0054955e-05 4.1581e-06 3.6960275e-06
0000b0 09 09 69 37 37 42 a8 38 1a ce 91 38 b5 ee f6 37
       1.3889986e-05 8.023198e-05 6.952528e-05 2.9436642e-05
0000c0 20 9f 1d 38 db 32 98 37 93 79 a5 37 e8 a5 2b 38
       3.7579914e-05 1.8143493e-05 1.9726145e-05 4.092409e-05
0000d0 9e 78 bc 37 22 6b 25 37 ab 27 62 37 05 dc b7 38
       2.2467513e-05 9.85971e-06 1.3479886e-05 8.767102e-05
0000e0 f1 6f cd 37 6b 53 5f 38 47 46 9f 38 c7 54 56 36
       2.4490031e-05 5.3245032e-05 7.594801e-05 3.1937832e-06
