src/compiled/nn_model.pth.tar (torch, 12134 bytes, 9 tensors)

layer1.weight f4 [60, 8]
0.2935172 -0.13774073 0.2682847 0.19863479 -0.20697284 -0.031737838 0.20777889 -0.21686934
-0.20350987 0.10114402 0.1922553 -0.27989575 -0.1243377 0.04637268 0.110128425 0.23762664
0.3328361 0.31003064 -0.14184535 -0.16727296 0.12696266 0.09926305 -0.04909916 0.20749927
0.15037648 0.08896779 0.029911594 0.1208422 0.10627092 0.012164032 0.14239936 -0.3029594
0.31276947 0.29836294 0.016389776 -0.08813535 -0.26480666 -0.119413584 -0.204782 -0.16951491
-0.19233315 0.14993486 0.1396691 -0.057198144 -0.017367842 0.101625316 0.15007176 0.3602901
0.18911098 -0.07341824 0.40951163 -0.038430274 0.28892478 0.111495614 -0.05430764 0.18588334
-0.25407445 -0.14996946 0.05177263 0.3427822 0.1561892 0.3035964 -0.29805714 0.36129662
-0.31893563 0.13232803 0.25173736 0.018962989 0.23356332 0.19913095 -0.26108408 -0.28314307
0.24098213 0.14001966 0.12602456 0.3377648 0.09659572 -0.07588096 0.32682797 -0.058795314
-0.27189344 -0.07322793 0.20703502 0.31678712 -0.18774676 -0.033090737 0.21964127 -0.2717546
0.11301744 0.08529228 -0.17829023 0.23684809 -0.08746314 0.31043676 -0.33907306 -0.19454585
0.27058193 -0.24053413 -0.2295153 -0.20623177 -0.017836958 -0.16208063 -0.21730864 -0.33681682
-0.16764355 0.3051008 0.01881653 -0.28991255 0.3179353 0.24329056 -0.13043635 0.06141896
-0.17623094 0.11303607 -0.13575816 -0.31013817 0.24527559 0.30569318 -0.31697258 -0.2747619
-0.16182573 0.2001606 -0.22153398 0.12261686 0.09483311 0.009636044 0.15307258 -0.1742924
0.23230657 0.063125774 -0.06191818 0.33846292 0.1083853 0.27530143 -0.035111554 -0.07149151
-0.26351506 0.32931063 -0.1719349 0.049650967 0.20814964 0.2168555 -0.13679446 -0.2583147
-0.20445566 0.31816924 0.32361132 -0.21128777 0.13319743 0.29090545 -0.2514723 0.16991211
0.26249805 0.116309375 -0.34649476 0.28032896 -0.15051419 0.20189181 0.07135904 -0.05779752
0.16954495 0.25024173 0.21035552 0.29335463 0.19846694 0.232075 -0.11060469 0.33006078
-0.041878548 -0.33538672 0.22894943 -0.2626425 0.1949809 -0.02031142 -0.19969602 -0.10107458
0.0010657072 -0.14127247 -0.038024604 -0.2566307 -0.07749422 0.32422152 -0.29821315 0.25846583
0.23635823 -0.0055376394 -0.31126556 -0.15125003 -0.20708247 0.23226309 0.3270251 0.08243422
-0.086315244 -0.105975196 -0.11681636 -0.17096667 -0.27652475 0.016253006 -0.17050433 0.30806205
0.0560835 -0.07801968 -0.16117819 0.06720126 0.0011774898 0.24531415 -0.09791738 0.12688708
0.20674685 0.24508634 -0.23758689 -0.21536568 0.26270416 -0.3407212 0.30212077 -0.24636024
-0.23621354 0.09376195 -0.11155841 -0.0984461 0.1573579 -0.066183954 -0.21369295 -0.327534
0.34968126 0.12899457 0.02247582 0.23472063 -0.06161796 0.23761082 -0.05087419 0.0010165337
0.15124913 0.27242222 -0.027154062 0.33811587 -0.004179884 0.30409607 0.05749515 -0.17947213
0.045783114 0.06808491 0.2107031 -0.16578479 -0.20153353 -0.08271086 0.119489804 0.17806602
-0.29508477 -0.2184306 -0.1521317 0.050620258 -0.189476 -0.33494955 -0.18469587 -0.06669903
00000000: e347 963e e80b 0dbe 9d5c 893e eb66 4b3e
00000010: b0f0 53be 89ff 01bd fdc3 543e ff12 5ebe
00000020: e464 50be 9924 cf3d 93de 443e 7f4e 8fbe
00000030: c4a4 febd 48f1 3d3d 038b e13d 6654 733e
00000040: 7e69 aa3e 56bc 9e3e e83f 11be 9a49 2bbe
00000050: 8002 023e 6d4a cb3d 331c 49bd b07a 543e
00000060: 4bfc 193e bf34 b63d 2909 f53c 1e7c f73d
00000070: 91a4 d93d a64b 473c 23d1 113e 7f1d 9bbe
00000080: 5223 a03e 07c3 983e da43 863c 4e80 b4bd
00000090: bd94 87be 1c8f f4bd 5fb2 51be 5195 2dbe
000000a0: fbf2 44be 8688 193e 6b05 0f3e 9a48 6abd
000000b0: 0147 8ebc ef20 d03d 69ac 193e f277 b83e
000000c0: 4fa6 413e 4d5c 96bd 82ab d13e 1069 1dbd
000000d0: f3ed 933e d057 e43d b071 5ebd 3458 3e3e
000000e0: 0c16 82be 9891 19be 8a0f 543d 2681 af3e
000000f0: 10f0 1f3e fd70 9b3e f29a 98be dffb b83e
00000100: 884b a3be 0081 073e b8e3 803e 4558 9b3c
00000110: 392b 6f3e fce8 4b3e d0ac 85be 21f8 90be
00000120: 05c4 763e 5061 0f3e 950c 013e 82ef ac3e
00000130: fad3 c53d 7a67 9bbd ff55 a73e 5bd3 70bd
00000140: 9e35 8bbe 86f8 95bd fd00 543e ec31 a23e
00000150: b040 40be 278a 07bd a4e9 603e 6b23 8bbe
00000160: b075 e73d b8ad ae3d b791 36be 4e88 723e
00000170: e01f b3bd 91f1 9e3e fc9a adbe 0737 47be
00000180: b789 8a3e 944e 76be 0f06 6bbe 6c2e 53be
00000190: d01e 92bc 77f8 25be 2886 5ebe 4173 acbe
000001a0: c0aa 2bbe 2c36 9c3e 2025 9a3c 6b6f 94be
000001b0: 6ac8 a23e 2921 793e 1b91 05be 7392 7b3d
000001c0: e275 34be 747f e73d 3004 0bbe 6eca 9ebe
000001d0: 8629 7b3e d183 9c3e 3b4a a2be 97ad 8cbe
000001e0: a5b5 25be e6f6 4c3e ced9 62be 8c1e fb3d
000001f0: dd37 c23d 7fe0 1d3c 0fbf 1c3e b579 32be
00000200: c6e1 6d3e 1648 813d eb9d 7dbd 034b ad3e
00000210: 1df9 dd3d 4ff4 8c3e 22d1 0fbd 246a 92bd
00000220: 72eb 86be 679b a83e b40f 30be d05e 4b3d
00000230: 2e25 553e 5e0f 5e3e d913 0cbe d341 84be
00000240: d35c 51be 14e7 a23e 62b0 a53e d25b 58be
00000250: e864 083e 8ff1 943e fac0 80be 71fd 2d3e
00000260: 2566 863e 9c33 ee3d c367 b1be 4787 8f3e
00000270: 6420 1abe babc 4e3e b024 923d 18bd 6cbd
00000280: 319d 2d3e af1f 803e 7067 573e 9432 963e
00000290: eb3a 4b3e 12a5 6d3e b684 e2bd bafd a83e
000002a0: d788 2bbd cfb7 abbe b871 6a3e 1479 86be
000002b0: 13a9 473e 2364 a6bc 1d7d 4cbe 3000 cfbd
000002c0: 33af 8b3a bba9 10be b0bf 1bbd 1965 83be
000002d0: 4ab5 9ebd 5d00 a63e 65af 98be a255 843e
000002e0: e407 723e 1675 b5bb 335e 9fbe 4ae1 1abe
000002f0: 6d0d 54be 60d6 6d3e d56f a73e 46d3 a83d
00000300: 0cc6 b0bd 8609 d9bd 6a3d efbd e311 2fbe
00000310: a794 8dbe 0625 853c b098 2ebe 4fba 9d3e
00000320: d0b7 653d c8c8 9fbd e50b 25be d0a0 893d
00000330: 0056 9a3a a233 7b3e e888 c8bd b0ee 013e
00000340: 72b5 533e eaf7 7a3e fa49 73be d288 5cbe
00000350: 2981 863e 0273 aebe 93af 9a3e dc45 7cbe
00000360: f6e1 71be 4406 c03d bc78 e4bd 1c9e c9bd
00000370: 6e22 213e 748b 87bd 53d2 5abe 89b2 a7be
00000380: 6c09 b33e 2717 043e 361f b83c 9b5a 703e
00000390: 1d63 7cbd 4050 733e 7461 50bd 363d 853a
000003a0: 0de1 1a3e ed7a 8b3e 3272 debc 861d ad3e
000003b0: 69f7 88bb 7bb2 9b3e 0980 6b3d 8bc7 37be
000003c0: 1387 3b3d 1a70 8b3d 8ec2 573e 7dc3 29be
000003d0: ce5e 4ebe 5064 a9bd 12b7 f43d f056 363e
000003e0: 5a15 97be 45ac 5fbe 6ac8 1bbe 3057 4f3d
000003f0: ff05 42be 827e abbe ea20 3dbe 8099 88bd

layer1.bias f4 [60]
0.034394387 0.009599255 -0.07027593 0.07479495 0.21075957 0.097791724 0.1870211 0.098080575
-0.060582392 0.12060348 0.20296143 0.17834815 -0.3166357 0.007097755 -0.3527536 0.2030224
-0.13920629 -0.12544882 0.28114465 -0.0072947443 -0.2884734 -0.004293524 0.093059644 0.08030591
0.273898 -0.32904646 -0.29685992 -0.33855674 0.034332037 -0.33911046 -0.19998965 -0.2622763
0.2987201 0.1500127 0.2289361 -0.23916976 0.34421074 0.19850616 -0.04168493 -0.3179452
0.11289151 -0.08285629 0.15664718 -0.27731073 -0.2618474 0.11206367 -0.15318821 0.25621003
0.27621692 -0.07872787 -0.15116502 -0.055132497 0.3231824 0.17491926 0.05037099 0.14788261
-0.29105836 0.1540214 -0.25116268 -0.043867707
00000000: 21e1 0c3d 3246 1d3c d4ec 8fbd 182e 993d
00000010: 5bd1 573e 0747 c83d 7682 3f3e 78de c83d
00000020: 3e25 78bd f5fe f63d 1fd5 4f3e e6a0 363e
00000030: 131e a2be 4994 e83b 1f9c b4be 1be5 4f3e
00000040: 188c 0ebe a875 00be 31f2 8f3e c008 efbb
00000050: c9b2 93be b1b0 8cbb 0e96 be3d 6d77 a43d
00000060: 5c3c 8c3e c778 a8be 06fe 97be 4f57 adbe
00000070: c09f 0c3d e39f adbe 16ca 4cbe 1449 86be
00000080: d7f1 983e ee9c 193e 3a6e 6a3e ebe8 74be
00000090: 643c b03e 3345 4b3e d1bd 2abd b7c9 a2be
000000a0: aa33 e73d 8fb0 a9bd 1e68 203e acfb 8dbe
000000b0: dd10 86be a381 e53d 5fdd 1cbe f62d 833e
000000c0: 4e6c 8d3e 143c a1bd 01cb 1abe 9dd2 61bd
000000d0: 2a78 a53e 091e 333e d051 4e3d 8a6e 173e
000000e0: 9a05 95be c9b7 1d3e 6598 80be a0ae 33bd

output.weight f4 [1, 60]
0.080461115 -0.055769764 0.12782885 -0.11678614 -0.005194596 -0.09324028 -0.100818865 -0.090780586
0.1047927 -0.040724188 0.1000368 0.06398557 0.010953426 -0.018379718 -0.1102493 0.08219712
0.11605577 0.076097175 0.103259385 -0.053708754 -0.0315002 0.08234428 0.09424766 0.033306632
-0.07689852 -0.04785926 -0.07900511 -0.07948382 -0.065783285 -0.0013502701 -0.06000469 -0.045066103
-0.081130765 0.08431493 -0.029690454 0.12848954 -0.10291655 -0.13505612 0.02356384 -0.065692104
-0.022806957 -0.12335994 -0.15336536 -0.11679529 0.11012986 -0.033138696 -0.12456934 -0.054181036
-0.093124144 -0.108680844 0.023527697 0.11127135 -0.1117326 -0.098133855 0.022296786 -0.042822465
-0.024328507 -0.071392484 -0.02100179 0.025964841
00000000: ccc8 a43d d66e 64bd 91e5 023e 922d efbd
00000010: 6e37 aabb c3f4 bebd 1f7a cebd 2ceb b9bd
00000020: 8e9d d63d 68ce 26bd 18e0 cc3d de0a 833d
00000030: 0076 333c 1091 96bc 63ca e1bd f756 a83d
00000040: a6ae ed3d d6d8 9b3d a879 d33d b6fd 5bbd
00000050: 5b06 01bd 1ea4 a83d eb04 c13d 896c 083d
00000060: f97c 9dbd 1208 44bd 6ecd a1bd 6ac8 a2bd
00000070: 63b9 86bd 8cfb b0ba 7ac7 75bd 3c97 38bd
00000080: e327 a6bd 4ead ac3d 6539 f3bc c392 033e
00000090: eac5 d2bd 274c 0abe f408 c13c 9589 86bd
000000a0: a8d5 babc 23a4 fcbd cf0b 1dbe 5e32 efbd
000000b0: c48b e13d 71bc 07bd 361e ffbd efec 5dbd
000000c0: dfb7 bebd 1094 debd 28bd c03c 3ce2 e33d
000000d0: 10d4 e4bd 67fa c8bd c0a7 b63c 9c66 2fbd
000000e0: 944c c7bc 3936 92bd f20b acbc 38b4 d43c

exp_avg f4 [60, 8]
-2.015207e-12 2.2693381e-13 7.747776e-09 1.1925538e-13 7.798011e-11 7.7549786e-11 7.7460184e-11 7.745999e-11
1.3967639e-12 -1.5728011e-13 -5.370099e-09 -8.26565e-14 -5.4049182e-11 -5.375092e-11 -5.3688807e-11 -5.3688675e-11
1.6226491e-16 9.375643e-18 3.838726e-16 0.0 -6e-45 -6e-45 3.8098123e-18 3.8004726e-18
2.9244443e-12 -3.2913516e-13 -1.1243919e-08 -1.7304693e-13 -1.13168225e-10 -1.1254377e-10 -1.1241369e-10 -1.1241341e-10
1.2995182e-13 -1.4582262e-14 -4.9974047e-10 -7.68614e-15 -5.0298064e-12 -5.0020626e-12 -4.996272e-12 -4.9962595e-12
2.3352349e-12 -2.6295925e-13 -8.9782e-09 -1.3819292e-13 -9.036414e-11 -8.986548e-11 -8.9761636e-11 -8.9761414e-11
2.5237002e-12 -2.8372324e-13 -9.703862e-09 -1.49309e-13 -9.76678e-11 -9.712895e-11 -9.701662e-11 -9.701637e-11
2.3100107e-12 -2.5633467e-13 -8.739542e-09 -1.3449926e-13 -8.7963296e-11 -8.7477935e-11 -8.7375614e-11 -8.7375385e-11
-2.6246017e-12 2.9555546e-13 1.0090694e-08 1.5531779e-13 1.0156121e-10 1.0100076e-10 1.0088406e-10 1.008838e-10
1.0199116e-12 -1.1483349e-13 -3.9212527e-09 -6.035454e-14 -3.9466774e-11 -3.9248986e-11 -3.9203633e-11 -3.9203536e-11
-2.5054904e-12 2.8214345e-13 9.632749e-09 1.4826915e-13 9.695205e-11 9.641704e-11 9.630564e-11 9.63054e-11
0.0 0.0 0.0 0.0 0.0 0.0 0.0 0.0
0.0 0.0 0.0 0.0 0.0 0.0 0.0 0.0
5.3776113e-13 -5.400178e-14 -1.7692616e-09 -2.7239063e-14 -1.7807637e-11 -1.7709344e-11 -1.768866e-11 -1.7688628e-11
0.0 0.0 0.0 0.0 0.0 0.0 0.0 0.0
6e-45 6e-45 0.0 0.0 -6e-45 -6e-45 -6e-45 -6e-45
4.0993467e-14 -6.075698e-16 1.2907482e-13 0.0 -6e-45 -6e-45 1.2969187e-15 1.29784e-15
0.0 0.0 0.0 0.0 0.0 0.0 0.0 0.0
-2.586199e-12 2.9123167e-13 9.943048e-09 1.5304522e-13 1.0007519e-10 9.952293e-11 9.940794e-11 9.9407683e-11
0.0 0.0 0.0 0.0 0.0 0.0 0.0 0.0
7.887885e-13 -8.8772034e-14 -3.0327445e-09 -4.6674405e-14 -3.0524087e-11 -3.0355655e-11 -3.032057e-11 -3.0320496e-11
-2.062372e-12 2.3224467e-13 7.929108e-09 1.2204647e-13 7.980519e-11 7.9364806e-11 7.927311e-11 7.927291e-11
6e-45 6e-45 0.0 0.0 -6e-45 -6e-45 -6e-45 -6e-45
6e-45 6e-45 0.0 0.0 -6e-45 -6e-45 -6e-45 -6e-45
-6e-45 -6e-45 0.0 0.0 6e-45 6e-45 6e-45 6e-45
0.0 0.0 0.0 0.0 0.0 0.0 0.0 0.0
0.0 0.0 0.0 0.0 0.0 0.0 0.0 0.0
0.0 0.0 0.0 0.0 0.0 0.0 0.0 0.0
1.6472167e-12 -1.8536648e-13 -6.3332783e-09 -9.746833e-14 -6.374342e-11 -6.3391695e-11 -6.331841e-11 -6.331827e-11
-5.495224e-16 8.389524e-18 -1.7788255e-15 -6e-45 -6e-45 -6e-45 -1.7873375e-17 -1.7886095e-17
1.5024043e-12 -1.6903048e-13 -5.7765916e-09 -8.889636e-14 -5.8140454e-11 -5.7819652e-11 -5.775281e-11 -5.775267e-11
0.0 0.0 0.0 0.0 0.0 0.0 0.0 0.0
00000000: bece 0dac 3881 7f2a 141b 0532 0645 062a
00000010: e67a ab2e a688 aa2e 3556 aa2e 1956 aa2e
00000020: b993 c42b e814 31aa e483 b8b1 3a20 baa9
00000030: f8b5 6dae 2866 6cae 3920 6cae 1320 6cae
00000040: 2614 3b25 39f3 2c23 9949 dd25 0000 0000
00000050: 0400 0080 0400 0080 a98e 8c22 7336 8c22
00000060: 1bca 4d2c 6049 b9aa 472b 41b2 62d5 42aa
00000070: 0cdc f8ae 837c f7ae 4833 f7ae 2033 f7ae
00000080: 1050 122a 6858 83a8 1c5e 09b0 1076 0aa8
00000090: 78f8 b0ac 93fe afac 6bca afac 4eca afac
000000a0: da53 242c 6c08 94aa 8b3e 1ab2 6697 1baa
000000b0: 7db6 c6ae c59d c5ae 4f63 c5ae 2f63 c5ae
000000c0: f196 312c d4b8 9faa 09b6 26b2 641b 28aa
000000d0: 15c6 d6ae bd96 d5ae 8057 d5ae 5c57 d5ae
000000e0: 748d 222c b84d 90aa ea24 16b2 c66e 17aa
000000f0: ef6e c1ae b35d c0ae 1924 c0ae f823 c0ae
00000100: 9fb0 38ac 0862 a62a 575b 2d32 4edf 2e2a
00000110: e155 df2e 601a de2e add8 dd2e 88d8 dd2e
00000120: 308a 8f2b 804a 01aa b4bb 86b1 06e8 87a9
00000130: a393 2dae 6e9e 2cae 5e6b 2cae 426b 2cae
00000140: e74e 30ac 28d5 9e2a 477d 2532 acef 262a
00000150: 2733 d52e f805 d42e 41c7 d32e 1fc7 d32e
00000160: 0000 0000 0000 0000 0000 0000 0000 0000
00000170: 0000 0000 0000 0000 0000 0000 0000 0000
00000180: 0000 0000 0000 0000 0000 0000 0000 0000
00000190: 0000 0000 0000 0000 0000 0000 0000 0000
000001a0: c65d 172b d033 73a9 5c2a f3b0 0159 f5a8
000001b0: 3ca3 9cad e6c5 9bad 5297 9bad 4097 9bad
000001c0: 0000 0000 0000 0000 0000 0000 0000 0000
000001d0: 0000 0000 0000 0000 0000 0000 0000 0000
000001e0: 0400 0000 0400 0000 0000 0000 0000 0000
000001f0: 0400 0080 0400 0080 0400 0080 0400 0080
00000200: 409e 3829 bd1e 2fa6 4953 112a 0000 0000
00000210: 0400 0080 0400 0080 dbe7 ba26 d809 bb26
00000220: 0000 0000 0000 0000 0000 0000 0000 0000
00000230: 0000 0000 0000 0000 0000 0000 0000 0000
00000240: d2fc 35ac e8f2 a32a fdd1 2a32 4850 2c2a
00000250: 5311 dc2e 6eda da2e b299 da2e 8d99 da2e
00000260: 0000 0000 0000 0000 0000 0000 0000 0000
00000270: 0000 0000 0000 0000 0000 0000 0000 0000
00000280: 3406 5e2b 98e5 c7a9 9b68 50b1 ed33 52a9
00000290: 113f 06ae 6e81 05ae ed59 05ae d859 05ae
000002a0: 6420 11ac fcbd 822a 9638 0832 8069 092a
000002b0: 547e af2e 6a86 ae2e cb52 ae2e ae52 ae2e
000002c0: 0400 0000 0400 0000 0000 0000 0000 0000
000002d0: 0400 0080 0400 0080 0400 0080 0400 0080
000002e0: 0400 0000 0400 0000 0000 0000 0000 0000
000002f0: 0400 0080 0400 0080 0400 0080 0400 0080
00000300: 0400 0080 0400 0080 0000 0000 0000 0000
00000310: 0400 0000 0400 0000 0400 0000 0400 0000
00000320: 0000 0000 0000 0000 0000 0000 0000 0000
00000330: 0000 0000 0000 0000 0000 0000 0000 0000
00000340: 0000 0000 0000 0000 0000 0000 0000 0000
00000350: 0000 0000 0000 0000 0000 0000 0000 0000
00000360: 0000 0000 0000 0000 0000 0000 0000 0000
00000370: 0000 0000 0000 0000 0000 0000 0000 0000
00000380: 3cd3 e72b 40b4 50aa 1b9c d9b1 ab7a dba9
00000390: 5b2c 8cae 5a66 8bae 193d 8bae 043d 8bae
000003a0: 9963 1ea6 68c2 1a23 8a2d 00a7 0400 0080
000003b0: 0400 0080 0400 0080 50da a4a3 59f8 a4a3
000003c0: d271 d32b b84f 3eaa 707b c6b1 432d c8a9
000003d0: 55b4 7fae 244b 7eae e2ff 7dae baff 7dae
000003e0: 0000 0000 0000 0000 0000 0000 0000 0000
000003f0: 0000 0000 0000 0000 0000 0000 0000 0000

exp_avg_sq f4 [60, 8]
1.6574806e-16 9.034714e-14 2.516925e-10 1.9985324e-16 2.5187589e-14 2.5178513e-14 2.434106e-14 2.4314545e-14
6.059476e-17 3.354445e-14 9.07237e-11 7.182116e-17 9.196238e-15 9.193502e-15 8.888671e-15 8.879143e-15
2.9187055e-17 8.2726897e-16 2.1859023e-20 0.0 3.8627637e-15 3.8627637e-15 3.7846283e-15 3.750659e-15
6.341857e-16 1.6138097e-14 6.9328e-10 3.0950984e-14 1.10784605e-13 1.1078364e-13 1.08541275e-13 1.07601584e-13
6.1315957e-19 1.0808292e-15 7.034476e-13 8.2819544e-21 7.0389053e-17 7.033533e-17 6.79354e-17 6.8089114e-17
1.977526e-16 1.08570176e-13 2.960961e-10 2.3457733e-16 3.0030354e-14 3.002104e-14 2.902707e-14 2.8996848e-14
2.7223419e-21 2.9678882e-20 6.4897267e-15 7.08966e-20 6.544293e-19 6.4742677e-19 6.474839e-19 6.4749817e-19
1.7794244e-16 2.8474328e-15 2.0776336e-10 6.538323e-15 2.7001349e-14 2.70012e-14 2.6376316e-14 2.608771e-14
3.2129156e-16 1.7563696e-13 4.8779236e-10 3.8718114e-16 4.8815017e-14 4.8797426e-14 4.7173765e-14 4.712163e-14
5.451105e-17 3.0252446e-14 8.1604154e-11 6.470118e-17 8.269761e-15 8.26738e-15 7.993173e-15 7.984444e-15
2.585977e-16 1.4125666e-13 3.9263853e-10 3.1169926e-16 3.9292364e-14 3.927831e-14 3.7971545e-14 3.7929786e-14
0.0 0.0 0.0 0.0 0.0 0.0 0.0 0.0
0.0 0.0 0.0 0.0 0.0 0.0 0.0 0.0
4.931581e-17 2.778313e-14 7.384447e-11 4.949949e-18 7.484734e-15 7.4825146e-15 7.233695e-15 7.226416e-15
0.0 0.0 0.0 0.0 0.0 0.0 0.0 0.0
2.1639253e-17 6.1342544e-16 0.0 0.0 2.8646068e-15 2.8646068e-15 2.8066356e-15 2.7814235e-15
2.8174265e-17 7.985539e-16 3.0606923e-20 0.0 3.7287356e-15 3.7287356e-15 3.653304e-15 3.620489e-15
0.0 0.0 0.0 0.0 0.0 0.0 0.0 0.0
3.2552628e-16 1.7544527e-13 4.8748805e-10 3.8694805e-16 4.9499457e-14 4.9481886e-14 4.7847983e-14 4.7802586e-14
0.0 0.0 0.0 0.0 0.0 0.0 0.0 0.0
1.4211201e-17 8.1681945e-15 2.1505773e-11 1.7234932e-17 2.1519558e-15 2.1514163e-15 2.0793371e-15 2.0764513e-15
1.4480454e-16 7.8879875e-14 2.199065e-10 1.7467884e-16 2.2006758e-14 2.199876e-14 2.1267219e-14 2.1244113e-14
2.6587866e-17 7.5372406e-16 0.0 0.0 3.5194884e-15 3.5194884e-15 3.4482864e-15 3.4173146e-15
1.6727895e-17 4.7420637e-16 0.0 0.0 2.2147095e-15 2.2147095e-15 2.1698818e-15 2.1503543e-15
7e-43 7e-43 0.0 0.0 7e-43 7e-43 7e-43 7e-43
0.0 0.0 0.0 0.0 0.0 0.0 0.0 0.0
0.0 0.0 0.0 0.0 0.0 0.0 0.0 0.0
0.0 0.0 0.0 0.0 0.0 0.0 0.0 0.0
4.583618e-16 1.1928288e-14 4.8140886e-10 2.7993106e-14 7.391087e-14 7.3910814e-14 7.2330705e-14 7.157984e-14
4.4113264e-15 3.7846e-12 6.1073826e-09 1.3386639e-15 6.111277e-13 6.1067807e-13 5.9022237e-13 5.8909567e-13
3.0829858e-15 7.2610564e-14 5.6696305e-09 1.939221e-14 5.678473e-13 5.6788314e-13 5.486517e-13 5.474339e-13
0.0 0.0 0.0 0.0 0.0 0.0 0.0 0.0
00000000: 3118 3f25 9571 cb29 925e 8a2f 446a 6625
00000010: a0de e228 b3c9 e228 aa3e db28 8601 db28
00000020: d5b8 8b24 1e12 1729 e780 c72e bb9b a524
00000030: 2aaa 2528 8b9d 2528 c31f 2028 d2f3 1f28
00000040: fe99 0624 ad71 6e26 e073 ce1e 0000 0000
00000050: b52b 8b27 b52b 8b27 095b 8827 b921 8727
00000060: a5ca 3626 eb5b 9128 3e91 3e30 0e64 0b29
00000070: fa76 f929 6c76 f929 c969 f429 174c f229
00000080: 07f9 3421 8fc3 9b26 be00 462b 1371 1c1e
00000090: 5d4e a224 a72e a224 fba5 9c24 b800 9d24
000000a0: 44fe 6325 727a f429 d2c7 a22f 8139 8725
000000b0: a43e 0729 e733 0729 efb9 0229 1797 0229
000000c0: c0b1 4d1d 9127 0c1f 2ad1 e927 5d66 a71f
000000d0: 4827 4121 2f16 3f21 801a 3f21 941b 3f21
000000e0: 5727 4d25 dd2d 4d27 3070 642f 6391 eb27
000000f0: df34 f328 8734 f328 a593 ed28 2afa ea28
00000100: 4436 b925 e8bf 452a 5615 0630 da31 df25
00000110: e2d7 5b29 9ac3 5b29 a673 5429 8a37 5429
00000120: 4a63 7b24 b23e 0829 0e73 b32e d630 9524
00000130: 8bf9 1428 90ee 1428 01fe 0f28 c0d5 0f28
00000140: 4912 9525 760a 1f2a f6da d72f b1ae b325
00000150: 03f5 3029 cfe4 3029 3602 2b29 11d2 2a29
00000160: 0000 0000 0000 0000 0000 0000 0000 0000
00000170: 0000 0000 0000 0000 0000 0000 0000 0000
00000180: 0000 0000 0000 0000 0000 0000 0000 0000
00000190: 0000 0000 0000 0000 0000 0000 0000 0000
000001a0: d56d 6324 893f fa28 be62 a22e f29e b622
000001b0: 3ed5 0628 02cb 0628 884f 0228 f62d 0228
000001c0: 0000 0000 0000 0000 0000 0000 0000 0000
000001d0: 0000 0000 0000 0000 0000 0000 0000 0000
000001e0: 3e96 c723 cfce 3026 0000 0000 0000 0000
000001f0: ab6a 4e27 ab6a 4e27 4a3d 4a27 356c 4827
00000200: 4dee 0124 e12a 6626 8089 101f 0000 0000
00000210: 8457 8627 8457 8627 c89f 8327 1e71 8227
00000220: 0000 0000 0000 0000 0000 0000 0000 0000
00000230: 0000 0000 0000 0000 0000 0000 0000 0000
00000240: 33a7 bb25 a888 452a ecff 0530 740f df25
00000250: fdec 5e29 bbd8 5e29 f87c 5729 a148 5729
00000260: 0000 0000 0000 0000 0000 0000 0000 0000
00000270: 0000 0000 0000 0000 0000 0000 0000 0000
00000280: 4013 8323 2625 1328 b22a bd2d d5f6 9e23
00000290: 9410 1b27 a006 1b27 00d5 1527 c49f 1527
000002a0: c2f2 2625 279f b129 2dca 712f 1864 4925
000002b0: 2138 c628 b025 c628 de8e bf28 9759 bf28
000002c0: d33a f523 053f 5926 0000 0000 0000 0000
000002d0: 1a9b 7d27 1a9b 7d27 a879 7827 543e 7627
000002e0: a049 9a23 41ae 0826 0000 0000 0000 0000
000002f0: 2e96 1f27 2e96 1f27 415b 1c27 09f3 1a27
00000300: f401 0000 f401 0000 0000 0000 0000 0000
00000310: f401 0000 f401 0000 f401 0000 f401 0000
00000320: 0000 0000 0000 0000 0000 0000 0000 0000
00000330: 0000 0000 0000 0000 0000 0000 0000 0000
00000340: 0000 0000 0000 0000 0000 0000 0000 0000
00000350: 0000 0000 0000 0000 0000 0000 0000 0000
00000360: 0000 0000 0000 0000 0000 0000 0000 0000
00000370: 0000 0000 0000 0000 0000 0000 0000 0000
00000380: 221d 0426 85e1 5628 2354 0430 b523 fc28
00000390: b76e a629 af6e a629 d0df a229 f82e a129
000003a0: 4eef 9e27 a528 852c 1bd9 d131 fbeb c026
000003b0: 6404 2c2b fee3 2b2b 0122 262b d1d0 252b
000003c0: 0d27 5e27 2481 a329 99ce c231 64ab ae28
000003d0: b6d5 1f2b 4bd8 1f2b 856e 1a2b c516 1a2b
000003e0: 0000 0000 0000 0000 0000 0000 0000 0000
000003f0: 0000 0000 0000 0000 0000 0000 0000 0000

exp_avg f4 [60]
7.802289e-11 -5.4078835e-11 3.8663936e-18 -1.1323033e-10 -5.0325677e-12 -9.0413725e-11 -9.772139e-11 -8.801035e-11
1.0161692e-10 -3.9488433e-11 9.700525e-11 0.0 0.0 -1.7817102e-11 0.0 -6e-45
1.3000519e-15 0.0 1.001301e-10 0.0 -3.0540834e-11 7.984899e-11 -6e-45 -6e-45
6e-45 0.0 0.0 0.0 -6.3778385e-11 -1.7916467e-17 -5.8172363e-11 0.0
-7.8671084e-11 0.0 -2.8788907e-11 -6e-45 -9.979678e-11 -1.3096221e-10 -6e-45 -6.370043e-11
-2.211431e-11 -1.196205e-10 -1.4870047e-10 -1.1323175e-10 0.0 -6e-45 -1.2077034e-10 -5.2538366e-11
-9.030117e-11 -1.0538636e-10 0.0 1.0789943e-10 6e-45 -7.613302e-14 0.0 0.0
0.0 -6.920763e-11 -6e-45 0.0
00000000: fb92 ab2e 5bd7 6dae 0ea5 8e22 02ff f8ae
00000010: 5711 b1ac 67d2 c6ae 40e4 d6ae 6c89 c1ae
00000020: 3e75 df2e 06ac 2dae 1a51 d52e 0000 0000
00000030: 0000 0000 8cb8 9cad 0000 0000 0400 0080
00000040: 735b bb26 0000 0000 3c30 dc2e 0000 0000
00000050: ec51 06ae fc96 af2e 0400 0080 0400 0080
00000060: 0400 0000 0000 0000 0000 0000 0000 0000
00000070: 0a40 8cae 1040 a5a3 42d8 7fae 0000 0000
00000080: e2ff acae 0000 0000 db3a fdad 0400 0080
00000090: 9874 dbae 96fe 0faf 0400 0080 2714 8cae
000000a0: 0085 c2ad 2d86 03af 767f 23af cfff f8ae
000000b0: 0000 0000 0400 0080 d4c9 04af f110 67ae
000000c0: 0a93 c6ae 3fbf e7ae 0000 0000 fb45 ed2e
000000d0: 0400 0000 b36f aba9 0000 0000 0000 0000
000000e0: 0000 0000 6f30 98ae 0400 0080 0000 0000

exp_avg_sq f4 [60]
2.5181481e-14 9.194032e-15 3.8627637e-15 1.10784605e-13 7.036349e-17 3.0023008e-14 6.57032e-19 2.7001359e-14
4.880243e-14 8.2677615e-15 3.9282637e-14 0.0 0.0 7.482778e-15 0.0 2.8646068e-15
3.7287356e-15 0.0 4.948726e-14 0.0 2.1513803e-15 2.2001342e-14 3.5194884e-15 2.2147095e-15
7e-43 0.0 0.0 0.0 7.3910957e-14 6.109616e-13 5.678731e-13 0.0
1.5522462e-14 0.0 2.4669805e-16 4.0000716e-15 4.9707834e-14 7.5302517e-14 2.1602106e-15 1.324664e-14
2.4280438e-16 7.299388e-14 3.134567e-13 1.2517987e-13 0.0 7.9116017e-16 1.568625e-13 1.11220745e-14
4.1863245e-14 4.6274725e-14 0.0 2.643009e-14 3.0699312e-15 2.1942767e-19 0.0 0.0
0.0 4.4091807e-17 1.2372234e-15 0.0
00000000: 8bd0 e228 fd9f 2528 b52b 8b27 fa76 f929
00000010: 463f a224 2c36 0729 efeb 4121 e534 f328
00000020: 5fc9 5b29 52f0 1428 cce9 3029 0000 0000
00000030: 0000 0000 39cc 0628 0000 0000 ab6a 4e27
00000040: 8457 8627 0000 0000 edde 5e29 0000 0000
00000050: f605 1b27 a42b c628 1a9b 7d27 2e96 1f27
00000060: f401 0000 0000 0000 0000 0000 0000 0000
00000070: c46e a629 6cf8 2b2b 92d7 1f2b 0000 0000
00000080: 5cd0 8b28 0000 0000 3536 8e25 261e 9027
00000090: 3bdd 5f29 f290 a929 daa8 1b27 58a1 6e28
000000a0: 9af7 8b25 1b5e a429 df75 b02a a4f0 0c2a
000000b0: 0000 0000 5109 6426 8a9c 302a 845b 4828
000000c0: 0989 3c29 2067 5029 0000 0000 a30f ee28
000000d0: 3c36 5d27 f986 8120 0000 0000 0000 0000
000000e0: 0000 0000 6b56 4b24 7d4d b226 0000 0000

exp_avg f4 [1, 60]
2.5619585e-08 1.8785748e-08 2.1854213e-17 2.9095295e-09 1.0433208e-09 1.4121317e-08 4.0112557e-08 5.591656e-09
2.408424e-08 1.2525378e-08 1.9875632e-08 0.0 0.0 2.2996716e-09 0.0 -6e-45
1.0110005e-14 0.0 3.1770366e-08 0.0 2.0599854e-08 2.1921341e-08 -6e-45 -6e-45
-6e-45 0.0 0.0 0.0 2.3107434e-09 1.7973333e-14 2.0105205e-08 0.0
1.1168224e-08 0.0 2.5529264e-08 -6e-45 2.7750083e-08 1.3223299e-08 -6e-45 1.5357772e-08
2.7729891e-08 1.9275499e-08 2.5920488e-09 1.3788932e-08 0.0 -6e-45 1.0550009e-08 3.479363e-08
3.1159104e-08 1.8187754e-08 0.0 8.284241e-09 -6e-45 3.463276e-13 0.0 0.0
0.0 3.3144747e-08 -6e-45 0.0
00000000: 1012 dc32 4c5e a132 cd91 c923 fcf0 4731
00000010: 9664 8f30 359a 7232 3948 2c33 ba20 c031
00000020: cee1 ce32 322f 5732 faba aa32 0000 0000
00000030: 0000 0000 4008 1e31 0000 0000 0400 0080
00000040: 2b20 3628 0000 0000 e373 0833 0000 0000
00000050: 8ff3 b032 8a4d bc32 0400 0080 0400 0080
00000060: 0400 0080 0000 0000 0000 0000 0000 0000
00000070: 07cb 1e31 afe3 a128 d0b3 ac32 0000 0000
00000080: 5ede 3f32 0000 0000 724b db32 0400 0080
00000090: 145f ee32 af2c 6332 0400 0080 19ec 8332
000000a0: ad32 ee32 4593 a532 ce1f 3231 5de4 6c32
000000b0: 0000 0000 0400 0080 6e3f 3532 0070 1533
000000c0: ccd3 0533 4b3b 9c32 0000 0000 7a52 0e32
000000d0: 0400 0080 11f7 c22a 0000 0000 0000 0000
000000e0: 0000 0000 095b 0e33 0400 0080 0000 0000

exp_avg_sq f4 [1, 60]
2.6210443e-09 9.515445e-10 6.369004e-14 2.7779264e-14 4.527786e-14 6.8061956e-10 8.635146e-13 9.105674e-14
2.6205205e-09 7.257114e-11 1.5715055e-09 0.0 0.0 9.125218e-12 0.0 6.9547856e-14
5.886489e-14 0.0 4.9583138e-09 0.0 1.8904383e-11 1.694416e-09 8.6747395e-14 9.9328653e-14
7e-43 0.0 0.0 0.0 3.7929576e-14 4.4544195e-12 2.0500394e-12 0.0
2.6451993e-10 0.0 2.2952006e-10 7.152767e-14 3.5768006e-09 6.969349e-10 8.270413e-14 6.038174e-10
3.846954e-10 1.5858606e-09 2.0579972e-14 3.1635748e-13 0.0 2.865089e-14 1.8548039e-13 4.9251128e-09
4.5412554e-09 1.4276046e-09 0.0 1.3867196e-10 7.618205e-18 2.0556621e-16 0.0 0.0
0.0 2.3493555e-12 4.4957192e-14 0.0
00000000: e61d 3431 7fc7 8230 cf6a 8f29 9f36 fa28
00000010: d2e9 4b29 5816 3b30 c90e 732b a30a cd29
00000020: af14 3431 eb95 9f2e 6ffc d730 0000 0000
00000030: 0000 0000 5488 202d 0000 0000 9c9b 9c29
00000040: 4c8d 8429 0000 0000 ca5d aa31 0000 0000
00000050: e348 a62d f7e0 e830 7856 c329 12ab df29
00000060: f401 0000 0000 0000 0000 0000 0000 0000
00000070: d3d1 2a29 d8b9 9c2c 3a42 102c 0000 0000
00000080: df6b 912f 0000 0000 275c 7c2f e510 a129
00000090: becb 7531 6f92 3f30 af3b ba29 dff9 2530
000000a0: 107d d32f 82f5 d930 2f5e b928 eb17 b22a
000000b0: 0000 0000 3a08 0129 15d5 502a c039 a931
000000c0: 4e09 9c31 5f35 c430 0000 0000 b078 182f
000000d0: f587 0c23 7000 6d25 0000 0000 0000 0000
000000e0: 0000 0000 3a52 252c 1d78 4a29 0000 0000
