src/compiled/nn_model.pth.tar (torch, 12426 bytes, 9 tensors)

layer1.weight f4 [60, 8]
0.2929149 -0.1377402 0.269857 0.1986558 -0.20541765 -0.03018922 0.20935006 -0.21529679
-0.2028765 0.10114124 0.1905099 -0.279913 -0.126071 0.044649005 0.10837707 0.2358703
0.33288127 0.31003088 -0.13790406 -0.16727296 0.12696266 0.09926305 -0.0490991 0.20749927
0.15070353 0.08892915 0.02887913 0.12084168 0.10544765 0.011349102 0.14158109 -0.3037295
0.31239608 0.29836223 0.017280309 -0.087876186 -0.2638187 -0.11845253 -0.2037918 -0.16852568
-0.19173087 0.14993422 0.13802771 -0.057253003 -0.01899086 0.100011915 0.1484303 0.35864714
0.21742624 -0.08042354 0.2233971 -0.039350167 0.16224812 -0.014913204 -0.18065314 0.05953981
-0.2535883 -0.15002991 0.050474167 0.3427822 0.15503891 0.3024441 -0.29921693 0.36013356
-0.3195171 0.13232835 0.253229 0.01901315 0.23501436 0.20057279 -0.25957832 -0.28163657
0.24145004 0.14001945 0.12473977 0.33775425 0.095315345 -0.077153325 0.32552037 -0.060089592
-0.27250254 -0.07322597 0.2085777 0.31680197 -0.18620059 -0.031550635 0.22120361 -0.27016982
0.11301744 0.08529228 -0.17829023 0.23684809 -0.08746314 0.31043676 -0.33907306 -0.19454585
0.27058193 -0.24053413 -0.2295153 -0.20623177 -0.017836958 -0.16208063 -0.21730864 -0.33681682
-0.16738261 0.30510104 0.01821004 -0.2899337 0.3172881 0.24269138 -0.13104688 0.06081119
-0.17623094 0.11303607 -0.13575816 -0.31013817 0.24527559 0.30569318 -0.31697258 -0.2747619
-0.16182573 0.2001606 -0.22153398 0.12261686 0.09483311 0.009636044 0.15307258 -0.1742924
0.2323505 0.06312605 -0.058729567 0.33846292 0.1083853 0.27530143 -0.035111494 -0.07149148
-0.26351506 0.32931063 -0.1719349 0.049650967 0.20814964 0.2168555 -0.13679446 -0.2583147
-0.20498472 0.31816897 0.32508722 -0.2112695 0.13461722 0.2923471 -0.25000307 0.17134714
0.26249805 0.116309375 -0.34649476 0.28032896 -0.15051419 0.20189181 0.07135904 -0.05779752
0.17008948 0.25024197 0.20878105 0.29334372 0.1969119 0.2305291 -0.112174556 0.32849774
-0.04250922 -0.33538693 0.23065896 -0.26262555 0.19668968 -0.018615948 -0.19796854 -0.09935056
0.0010657072 -0.14127247 -0.038024604 -0.2566307 -0.07749422 0.32422152 -0.29821315 0.25846583
0.23635823 -0.0055376394 -0.31126556 -0.15125003 -0.20708247 0.23226309 0.3270251 0.08243422
-0.086315244 -0.105975196 -0.11681636 -0.17096667 -0.27652475 0.016253006 -0.17050433 0.30806205
0.0560835 -0.07801968 -0.16117819 0.06720126 0.0011774898 0.24531415 -0.09791738 0.12688708
0.20674685 0.24508634 -0.23758689 -0.21536568 0.26270416 -0.3407212 0.30212077 -0.24636024
-0.23621354 0.09376195 -0.11155841 -0.0984461 0.1573579 -0.066183954 -0.21369295 -0.327534
0.34978837 0.12899265 0.021821324 0.23472063 -0.06214652 0.2370462 -0.05140495 0.00048236817
0.15124913 0.27242222 -0.027154062 0.33811587 -0.004179884 0.30409607 0.05749515 -0.17947213
0.045848645 0.06808473 0.21047479 -0.16578479 -0.20176217 -0.08285333 0.119345956 0.17783687
-0.29508477 -0.2184306 -0.1521317 0.050620258 -0.189476 -0.33494955 -0.18469587 -0.06669903
00000000: f1f8 953e c40b 0dbe b22a 8a3e 6d6c 4b3e
00000010: 0159 52be 624f f7bc dd5f 563e c376 5cbe
00000020: dbbe 4fbe 2323 cf3d 0715 433e c250 8fbe
00000030: c218 01be e0e1 363d ccf4 dd3d fc87 713e
00000040: 6a6f aa3e 5ebc 9e3e b936 0dbe 9a49 2bbe
00000050: 8002 023e 6d4a cb3d 231c 49bd b07a 543e
00000060: 0752 1a3e 7c20 b63d ed93 ec3c d87b f73d
00000070: f0f4 d73d 95f1 393c a2fa 103e 6f82 9bbe
00000080: 61f2 9f3e efc2 983e 6f8f 8d3c 6ef8 b3bd
00000090: 3f13 87be 3d97 f2bd ccae 50be ff91 2cbe
000000a0: 1955 44be 5b88 193e 2357 0d3e 2082 6abd
000000b0: b892 9bbc 0cd3 cc3d 1dfe 173e 99a0 b73e
000000c0: fca4 5e3e 19b5 a4bd 36c2 643e a42d 21bd
000000d0: 5f24 263e 8356 74bc 23fd 38be 04e0 733d
000000e0: 53d6 81be 71a1 19be 00be 4e3d 2681 af3e
000000f0: 85c2 1e3e f4d9 9a3e f632 99be 6d63 b83e
00000100: bf97 a3be 1581 073e 3ba7 813e 77c1 9b3c
00000110: 9ba7 703e f462 4d3e 73e7 84be ab32 90be
00000120: ae3e 773e 4261 0f3e 9177 ff3d 20ee ac3e
00000130: b134 c33d 9002 9ebd 9baa a63e 8120 76bd
00000140: 7485 8bbe 7ff7 95bd 6595 553e de33 a23e
00000150: 5eab 3ebe 3d3b 01bd 3383 623e b353 8abe
00000160: b075 e73d b8ad ae3d b791 36be 4e88 723e
00000170: e01f b3bd 91f1 9e3e fc9a adbe 0737 47be
00000180: b789 8a3e 944e 76be 0f06 6bbe 6c2e 53be
00000190: d01e 92bc 77f8 25be 2886 5ebe 4173 acbe
000001a0: 5966 2bbe 3436 9c3e 392d 953c 3172 94be
000001b0: 9673 a23e 1784 783e 2731 06be 2815 793d
000001c0: e275 34be 747f e73d 3004 0bbe 6eca 9ebe
000001d0: 8629 7b3e d183 9c3e 3b4a a2be 97ad 8cbe
000001e0: a5b5 25be e6f6 4c3e ced9 62be 8c1e fb3d
000001f0: dd37 c23d 7fe0 1d3c 0fbf 1c3e b579 32be
00000200: 4aed 6d3e 3b48 813d 6a8e 70bd 034b ad3e
00000210: 1df9 dd3d 4ff4 8c3e 12d1 0fbd 206a 92bd
00000220: 72eb 86be 679b a83e b40f 30be d05e 4b3d
00000230: 2e25 553e 5e0f 5e3e d913 0cbe d341 84be
00000240: 84e7 51be 0be7 a23e d571 a63e 0857 58be
00000250: 19d9 093e 85ae 953e 6700 80be a075 2f3e
00000260: 2566 863e 9c33 ee3d c367 b1be 4787 8f3e
00000270: 6420 1abe babc 4e3e b024 923d 18bd 6cbd
00000280: f02b 2e3e b71f 803e b3ca 553e 2631 963e
00000290: 46a3 493e d20f 6c3e c6bb e5bd db30 a83e
000002a0: 261e 2ebd d6b7 abbe dd31 6c3e db76 86be
000002b0: 0569 493e 7980 98bc 44b8 4abe 4e78 cbbd
000002c0: 33af 8b3a bba9 10be b0bf 1bbd 1965 83be
000002d0: 4ab5 9ebd 5d00 a63e 65af 98be a255 843e
000002e0: e407 723e 1675 b5bb 335e 9fbe 4ae1 1abe
000002f0: 6d0d 54be 60d6 6d3e d56f a73e 46d3 a83d
00000300: 0cc6 b0bd 8609 d9bd 6a3d efbd e311 2fbe
00000310: a794 8dbe 0625 853c b098 2ebe 4fba 9d3e
00000320: d0b7 653d c8c8 9fbd e50b 25be d0a0 893d
00000330: 0056 9a3a a233 7b3e e888 c8bd b0ee 013e
00000340: 72b5 533e eaf7 7a3e fa49 73be d288 5cbe
00000350: 2981 863e 0273 aebe 93af 9a3e dc45 7cbe
00000360: f6e1 71be 4406 c03d bc78 e4bd 1c9e c9bd
00000370: 6e22 213e 748b 87bd 53d2 5abe 89b2 a7be
00000380: 7617 b33e a616 043e a2c2 b23c 9b5a 703e
00000390: 598d 7ebd 3dbc 723e ff8d 52bd 5ce6 fc39
000003a0: 0de1 1a3e ed7a 8b3e 3272 debc 861d ad3e
000003b0: 69f7 88bb 7bb2 9b3e 0980 6b3d 8bc7 37be
000003c0: cacb 3b3d 0270 8b3d b486 573e 7dc3 29be
000003d0: be9a 4ebe 02af a9bd a76b f43d de1a 363e
000003e0: 5a15 97be 45ac 5fbe 6ac8 1bbe 3057 4f3d
000003f0: ff05 42be 827e abbe ea20 3dbe 8099 88bd

layer1.bias f4 [60]
0.035953708 0.007863835 -0.07027589 0.0739712 0.21174575 0.09616742 0.060517192 0.09694015
-0.059126392 0.11932228 0.20450851 0.17834815 -0.3166357 0.0064955843 -0.3527536 0.2030224
-0.13920629 -0.12544882 0.28259772 -0.0072947443 -0.29001832 -0.0025863715 0.093059644 0.08030591
0.273898 -0.32904646 -0.29685992 -0.33855674 0.03380315 -0.33911046 -0.2002183 -0.2622763
0.29677752 0.1500127 0.22386853 -0.23916976 0.34278578 0.19701827 -0.04168493 -0.31965083
0.10900656 -0.08423971 0.15596436 -0.27793083 -0.2618474 0.11206367 -0.15382694 0.25465068
0.27481762 -0.080256954 -0.15116502 -0.05302745 0.3231824 0.17462859 0.05037099 0.14788261
-0.29105836 0.13853596 -0.25116268 -0.043867707
00000000: 3244 133d 51d7 003c ceec 8fbd 367e 973d
00000010: e1d3 583e 6df3 c43d e0e0 773d 8f88 c63d
00000020: 842e 72bd 3d5f f43d ae6a 513e e6a0 363e
00000030: 131e a2be e9d8 d43b 1f9c b4be 1be5 4f3e
00000040: 188c 0ebe a875 00be a6b0 903e c008 efbb
00000050: 487d 94be 1d80 29bb 0e96 be3d 6d77 a43d
00000060: 5c3c 8c3e c778 a8be 06fe 97be 4f57 adbe
00000070: 2c75 0a3d e39f adbe 0706 4dbe 1449 86be
00000080: 39f3 973e ee9c 193e cb3d 653e ebe8 74be
00000090: 9e81 af3e 28bf 493e d1bd 2abd 46a9 a3be
000000a0: d53e df3d de85 acbd 1fb5 1f3e f34c 8ebe
000000b0: dd10 86be a381 e53d cf84 1dbe 9361 823e
000000c0: e5b4 8c3e c25d a4bd 01cb 1abe 5033 59bd
000000d0: 2a78 a53e d6d1 323e d051 4e3d 8a6e 173e
000000e0: 9a05 95be 5fdc 0d3e 6598 80be a0ae 33bd

output.weight f4 [1, 60]
0.082044 -0.053857993 0.12782897 -0.062603414 0.010244357 -0.09154359 -0.004011908 -0.032744493
0.106281206 -0.03611221 0.10162371 0.06398557 0.010953426 -0.01600843 -0.1102493 0.08219712
0.11605635 0.076097175 0.10468396 -0.053708754 -0.016617527 0.08402866 0.09424766 0.033306632
-0.07689852 -0.04785926 -0.07900511 -0.07948382 -0.028969845 -0.0013501773 -0.015542119 -0.045066103
-0.07898686 0.08431493 -0.024433428 0.12848954 -0.10145834 -0.133484 0.02356384 -0.06373221
-0.018383892 -0.121836446 -0.09717061 -0.038475085 0.11012986 -0.033138696 -0.046418726 -0.052621115
-0.091670856 -0.1071666 0.023527697 0.11351901 -0.1117326 -0.09790702 0.022296786 -0.042822465
-0.024328507 -0.0047669234 -0.02100179 0.025964841
00000000: af06 a83d 339a 5cbd 99e5 023e 3836 80bd
00000010: f3d7 273c 357b bbbd 5376 83bb 171f 06bd
00000020: f6a9 d93d 66ea 13bd 1720 d03d de0a 833d
00000030: 0076 333c 1c24 83bc 63ca e1bd f756 a83d
00000040: f4ae ed3d d6d8 9b3d 8b64 d63d b6fd 5bbd
00000050: 7b21 88bc 3817 ac3d eb04 c13d 896c 083d
00000060: f97c 9dbd 1208 44bd 6ecd a1bd 6ac8 a2bd
00000070: 2b52 edbc 6ff8 b0ba 5fa4 7ebc 3c97 38bd
00000080: ddc3 a1bd 4ead ac3d 9d28 c8bc c392 033e
00000090: 64c9 cfbd 08b0 08be f408 c13c 0886 82bd
000000a0: d199 96bc 6385 f9bd 6301 c7bd 0d98 1dbd
000000b0: c48b e13d 71bc 07bd 9021 3ebd 3d89 57bd
000000c0: eebd bbbd 2a7a dbbd 28bd c03c a87c e83d
000000d0: 10d4 e4bd 7a83 c8bd c0a7 b63c 9c66 2fbd
000000e0: 944c c7bc da33 9cbb f20b acbc 38b4 d43c

exp_avg f4 [60, 8]
-2.963975e-10 2.3454585e-10 1.4149804e-06 6.492204e-11 1.4231668e-08 1.4155007e-08 1.4142343e-08 1.4143761e-08
1.9600979e-10 -1.5510636e-10 -9.357375e-07 -4.293347e-11 -9.411514e-09 -9.360817e-09 -9.352442e-09 -9.35338e-09
1.9057647e-14 1.5425431e-15 4.7728467e-14 0.0 -6e-45 -6e-45 4.718259e-16 4.7022637e-16
2.545539e-10 -2.0142445e-10 -1.2152431e-06 -5.5758016e-11 -1.2222742e-08 -1.21568995e-08 -1.2146024e-08 -1.2147242e-08
-2.8973247e-11 2.2929922e-11 1.3831031e-07 6.3458583e-12 1.3911053e-09 1.3836119e-09 1.3823741e-09 1.3825125e-09
3.3240521e-10 -2.6303915e-10 -1.5868795e-06 -7.2809106e-11 -1.5960607e-08 -1.5874631e-08 -1.586043e-08 -1.586202e-08
5.6535575e-11 -4.472322e-11 -2.699284e-07 -1.2385308e-11 -2.7149012e-09 -2.700277e-09 -2.6978608e-09 -2.6981313e-09
1.4915338e-10 -1.1771581e-10 -7.1021145e-07 -3.2586274e-11 -7.143219e-09 -7.10474e-09 -7.0983712e-09 -7.099082e-09
-3.8423384e-10 3.040527e-10 1.8343047e-06 8.4161456e-11 1.8449175e-08 1.8349791e-08 1.8333377e-08 1.8335214e-08
1.3304963e-10 -1.05284254e-10 -6.3517115e-07 -2.914291e-11 -6.3884604e-09 -6.354047e-09 -6.348363e-09 -6.348999e-09
-3.6731437e-10 2.906639e-10 1.7535324e-06 8.045547e-11 1.763678e-08 1.7541774e-08 1.7526082e-08 1.7527837e-08
0.0 0.0 0.0 0.0 0.0 0.0 0.0 0.0
0.0 0.0 0.0 0.0 0.0 0.0 0.0 0.0
8.722634e-11 -4.78285e-11 -2.8206927e-07 -1.2951995e-11 -2.8392164e-09 -2.823922e-09 -2.819211e-09 -2.8194835e-09
0.0 0.0 0.0 0.0 0.0 0.0 0.0 0.0
6e-45 6e-45 0.0 0.0 -6e-45 -6e-45 -6e-45 -6e-45
2.922396e-13 -1.4844126e-15 7.4602905e-13 0.0 -6e-45 -6e-45 7.500437e-15 7.4940325e-15
0.0 0.0 0.0 0.0 0.0 0.0 0.0 0.0
-3.784799e-10 2.9949934e-10 1.8068358e-06 8.2901117e-11 1.8172896e-08 1.8075001e-08 1.805883e-08 1.8060643e-08
0.0 0.0 0.0 0.0 0.0 0.0 0.0 0.0
6.7482714e-11 -5.3398008e-11 -3.2216312e-07 -1.4781553e-11 -3.2402703e-09 -3.222816e-09 -3.219933e-09 -3.2202556e-09
-3.0353328e-10 2.4019253e-10 1.4490462e-06 6.648504e-11 1.4574297e-08 1.44957895e-08 1.4482822e-08 1.4484273e-08
6e-45 6e-45 0.0 0.0 -6e-45 -6e-45 -6e-45 -6e-45
6e-45 6e-45 0.0 0.0 -6e-45 -6e-45 -6e-45 -6e-45
-6e-45 -6e-45 0.0 0.0 6e-45 6e-45 6e-45 6e-45
0.0 0.0 0.0 0.0 0.0 0.0 0.0 0.0
0.0 0.0 0.0 0.0 0.0 0.0 0.0 0.0
0.0 0.0 0.0 0.0 0.0 0.0 0.0 0.0
1.2328896e-10 -9.755492e-11 -5.885863e-07 -2.7005691e-11 -5.9199174e-09 -5.8880287e-09 -5.8827614e-09 -5.8833507e-09
-1.2962503e-14 1.6704485e-16 -4.552327e-14 -6e-45 -6e-45 -6e-45 -4.5739816e-16 -4.5745343e-16
7.8917844e-11 -6.244163e-11 -3.7676497e-07 -1.728696e-11 -3.789448e-09 -3.7690353e-09 -3.7656633e-09 -3.766041e-09
0.0 0.0 0.0 0.0 0.0 0.0 0.0 0.0
00000000: 3df2 a2af 65f1 802f 5bea bd35 dcc3 8e2e
00000010: 8a7f 7432 612e 7332 aff6 7232 ebfc 7232
00000020: da83 572f 8f8a 2aaf 642f 7bb5 cad2 3cae
00000030: 47b0 21b2 4fd1 20b2 7aac 20b2 9ab0 20b2
00000040: f1a7 ab28 cc4d de26 2df3 5629 0000 0000
00000050: 0400 0080 0400 0080 9bfe 0726 9588 0726
00000060: 47f1 8b2f f177 5daf 6f1b a3b5 f239 75ae
00000070: 30fc 51b2 9cda 50b2 c7aa 50b2 23b0 50b2
00000080: f4d9 fead 98b1 c92d 7382 1434 6946 df2c
00000090: 2b31 bf30 8429 be30 f7fd bd30 d602 be30
000000a0: e0bd b62f 789b 90af c4fc d4b5 e21b a0ae
000000b0: bf19 89b2 af5c 88b2 743d 88b2 f340 88b2
000000c0: 66a5 782e dfb1 44ae adea 90b4 78e2 59ad
000000d0: 0c91 3ab1 c68f 39b1 4565 39b1 076a 39b1
000000e0: f2fe 232f 0e6e 01af 5ca5 3eb5 e250 0fae
000000f0: 6b70 f5b1 f41d f4b1 efe5 f3b1 30ec f3b1
00000100: 1b3c d3af 9d27 a72f 3b32 f635 b012 b92e
00000110: 2a7a 9e32 9e9f 9d32 867b 9d32 907f 9d32
00000120: 244a 122f c485 e7ae a180 2ab5 002c 00ae
00000130: 7e81 dbb1 ca52 dab1 cb20 dab1 6326 dab1
00000140: e7ee c9af 4fcb 9f2f ea5a eb35 67ec b02e
00000150: b07f 9732 c5ae 9632 438c 9632 1f90 9632
00000160: 0000 0000 0000 0000 0000 0000 0000 0000
00000170: 0000 0000 0000 0000 0000 0000 0000 0000
00000180: 0000 0000 0000 0000 0000 0000 0000 0000
00000190: 0000 0000 0000 0000 0000 0000 0000 0000
000001a0: 10d0 bf2e 1b5a 52ae 4e6f 97b4 9ada 63ad
000001b0: 061c 43b1 f60e 42b1 16bc 41b1 e1c0 41b1
000001c0: 0000 0000 0000 0000 0000 0000 0000 0000
000001d0: 0000 0000 0000 0000 0000 0000 0000 0000
000001e0: 0400 0000 0400 0000 0000 0000 0000 0000
000001f0: 0400 0080 0400 0080 0400 0080 0400 0080
00000200: 2a84 a42a 29ed d5a6 0ffd 512b 0000 0000
00000210: 0400 0080 0400 0080 a91d 0728 2000 0728
00000220: 0000 0000 0000 0000 0000 0000 0000 0000
00000230: 0000 0000 0000 0000 0000 0000 0000 0000
00000240: 4f12 d0af c9a6 a42f 6882 f235 2e4d b62e
00000250: 9f1a 9c32 5943 9b32 ca1f 9b32 c623 9b32
00000260: 0000 0000 0000 0000 0000 0000 0000 0000
00000270: 0000 0000 0000 0000 0000 0000 0000 0000
00000280: 6465 942e d0d8 6aae c3f5 acb4 1905 82ad
00000290: 70ab 5eb1 6178 5db1 a945 5db1 564b 5db1
000002a0: 83de a6af 180c 842f d97c c235 c033 922e
000002b0: 7062 7a32 2809 7932 20d0 7832 82d6 7832
000002c0: 0400 0000 0400 0000 0000 0000 0000 0000
000002d0: 0400 0080 0400 0080 0400 0080 0400 0080
000002e0: 0400 0000 0400 0000 0000 0000 0000 0000
000002f0: 0400 0080 0400 0080 0400 0080 0400 0080
00000300: 0400 0080 0400 0080 0000 0000 0000 0000
00000310: 0400 0000 0400 0000 0400 0000 0400 0000
00000320: 0000 0000 0000 0000 0000 0000 0000 0000
00000330: 0000 0000 0000 0000 0000 0000 0000 0000
00000340: 0000 0000 0000 0000 0000 0000 0000 0000
00000350: 0000 0000 0000 0000 0000 0000 0000 0000
00000360: 0000 0000 0000 0000 0000 0000 0000 0000
00000370: 0000 0000 0000 0000 0000 0000 0000 0000
00000380: c28e 072f 8a86 d6ae 58ff 1db5 698b edad
00000390: 2568 cbb1 a64f cab1 5121 cab1 8026 cab1
000003a0: fe82 69a8 f096 4025 c204 4da9 0400 0080
000003b0: 0400 0080 0400 0080 07d6 03a6 1bda 03a6
000003c0: cc8a ad2e 834f 89ae 2f46 cab4 c60e 98ad
000003d0: 5634 82b1 c980 81b1 2063 81b1 7266 81b1
000003e0: 0000 0000 0000 0000 0000 0000 0000 0000
000003f0: 0000 0000 0000 0000 0000 0000 0000 0000

exp_avg_sq f4 [60, 8]
1.6429537e-10 8.955701e-08 0.00024946863 1.9810548e-10 2.4965114e-08 2.4956092e-08 2.4125972e-08 2.4099673e-08
6.006335e-11 3.3251077e-08 8.992051e-05 7.119309e-11 9.114792e-09 9.112083e-09 8.80995e-09 8.80053e-09
2.8929916e-11 8.200345e-10 1.0980166e-14 0.0 3.828981e-09 3.828981e-09 3.7515258e-09 3.7178525e-09
6.286372e-10 1.5996974e-08 0.0006872052 3.0680372e-08 1.0981446e-07 1.0981336e-07 1.0759057e-07 1.0665931e-07
6.077508e-13 1.0713792e-09 6.970118e-07 8.208211e-15 6.9744745e-11 6.9691614e-11 6.731276e-11 6.7465304e-11
1.9601866e-10 1.0762052e-07 0.00029347796 2.325261e-10 2.9764957e-08 2.9755642e-08 2.8770337e-08 2.874051e-08
2.431879e-15 2.6016525e-14 4.69086e-09 7.026557e-14 4.72229e-13 4.675236e-13 4.6772194e-13 4.6774455e-13
1.7638596e-10 2.8225247e-09 0.00020594204 6.4811294e-09 2.6764802e-08 2.6764752e-08 2.6145184e-08 2.5859094e-08
3.1847508e-10 1.7410062e-07 0.00048349172 3.8379558e-10 4.838426e-08 4.836705e-08 4.675747e-08 4.6705743e-08
5.4033826e-11 2.998782e-08 8.0886464e-05 6.413565e-11 8.197008e-09 8.194636e-09 7.922824e-09 7.914179e-09
2.563304e-10 1.4002156e-07 0.00038917034 3.0897324e-10 3.894519e-08 3.893152e-08 3.7636028e-08 3.7594642e-08
0.0 0.0 0.0 0.0 0.0 0.0 0.0 0.0
0.0 0.0 0.0 0.0 0.0 0.0 0.0 0.0
4.8884303e-11 2.7540095e-08 7.319801e-05 4.9066584e-12 7.4192186e-09 7.4170092e-09 7.1703803e-09 7.1631474e-09
0.0 0.0 0.0 0.0 0.0 0.0 0.0 0.0
2.1449965e-11 6.0806105e-10 0.0 0.0 2.8395495e-09 2.8395495e-09 2.7820861e-09 2.7570966e-09
2.7926241e-11 7.9156875e-10 2.152506e-14 0.0 3.6961207e-09 3.6961207e-09 3.6213486e-09 3.5888346e-09
0.0 0.0 0.0 0.0 0.0 0.0 0.0 0.0
3.2267353e-10 1.7391069e-07 0.00048318904 3.8356335e-10 4.906285e-08 4.904566e-08 4.742593e-08 4.7380972e-08
0.0 0.0 0.0 0.0 0.0 0.0 0.0 0.0
1.4086743e-11 8.096746e-09 2.131674e-05 1.708421e-11 2.1330258e-09 2.132498e-09 2.0610578e-09 2.0581958e-09
1.4353438e-10 7.819e-08 0.00021795975 1.7315084e-10 2.1811939e-08 2.1804048e-08 2.107887e-08 2.1056021e-08
2.6355326e-11 7.4713363e-10 0.0 0.0 3.4887009e-09 3.4887009e-09 3.4181267e-09 3.3874346e-09
1.658164e-11 4.7005844e-10 0.0 0.0 2.195348e-09 2.195348e-09 2.150903e-09 2.1315527e-09
7e-43 7e-43 0.0 0.0 7e-43 7e-43 7e-43 7e-43
0.0 0.0 0.0 0.0 0.0 0.0 0.0 0.0
0.0 0.0 0.0 0.0 0.0 0.0 0.0 0.0
0.0 0.0 0.0 0.0 0.0 0.0 0.0 0.0
4.5435214e-10 1.1823973e-08 0.00047719557 2.7748252e-08 7.3264246e-08 7.326418e-08 7.1698146e-08 7.095365e-08
4.3727635e-09 3.751499e-06 0.0060539795 1.3269577e-09 6.0578236e-07 6.053375e-07 5.850604e-07 5.8394295e-07
3.056017e-09 7.1975656e-08 0.005620047 1.9222593e-08 5.628801e-07 5.6291543e-07 5.4385333e-07 5.426484e-07
0.0 0.0 0.0 0.0 0.0 0.0 0.0 0.0
00000000: 09a5 342f 7d52 c033 1dcb 8239 bcd1 592f
00000010: de72 d632 075f d632 933d cf32 be03 cf32
00000020: a914 842e f2cf 0e33 b593 bc38 268e 9c2e
00000030: 4797 1c32 5d8b 1c32 925a 1732 2431 1732
00000040: 6178 fe2d cc68 6130 14cd 4528 0000 0000
00000050: 1390 8331 1390 8331 c5e6 8031 277d 7f31
00000060: 69cc 2c30 b869 8932 8f25 343a 6dc5 0333
00000070: 23d3 eb33 88d2 eb33 8b0c e733 930c e533
00000080: 0f11 2b2b ce3f 9330 491a 3b35 b1dd 1328
00000090: cd5e 992e e440 992e b705 942e 975b 942e
000000a0: 5986 572f 021d e733 f2dd 9939 47aa 7f2f
000000b0: d5ad ff32 5999 ff32 a422 f732 0de1 f632
000000c0: 403c 2f27 0656 ea28 3e2d a131 5839 9e29
000000d0: b0eb 042b a098 032b eba6 032b 8ca8 032b
000000e0: 3cf0 412f 61f6 4131 25f2 5739 9eb0 de31
000000f0: 6ce8 e532 50e8 e532 de95 e032 c020 de32
00000100: 6215 af2f 6af0 3a34 297d fd39 6dfe d22f
00000110: 0ecf 4f33 22bc 4f33 62d2 4833 8299 4833
00000120: aea4 6d2e f5cb 0033 97a1 a938 2909 8d2e
00000130: d3d2 0c32 64c8 0c32 f31c 0832 edf6 0732
00000140: 4ceb 8c2f d558 1634 8f09 cc39 1edc a92f
00000150: b044 2733 a935 2733 40a5 2133 bf77 2133
00000160: 0000 0000 0000 0000 0000 0000 0000 0000
00000170: 0000 0000 0000 0000 0000 0000 0000 0000
00000180: 0000 0000 0000 0000 0000 0000 0000 0000
00000190: 0000 0000 0000 0000 0000 0000 0000 0000
000001a0: d5fe 562e 4f91 ec32 e281 9938 40a3 ac2c
000001b0: 23ec fe31 b4d8 fe31 555f f631 b61f f631
000001c0: 0000 0000 0000 0000 0000 0000 0000 0000
000001d0: 0000 0000 0000 0000 0000 0000 0000 0000
000001e0: 07ad bc2d 7e24 2730 0000 0000 0000 0000
000001f0: e221 4331 e221 4331 fa2e 3f31 5b77 3d31
00000200: 4ea4 f52d b395 5930 69e1 c128 0000 0000
00000210: d8fe 7d31 d8fe 7d31 70db 7831 729f 7631
00000220: 0000 0000 0000 0000 0000 0000 0000 0000
00000230: 0000 0000 0000 0000 0000 0000 0000 0000
00000240: 4364 b12f 35bc 3a34 8954 fd39 bedd d22f
00000250: 2db9 5233 46a6 5233 5db1 4b33 ee7f 4b33
00000260: 0000 0000 0000 0000 0000 0000 0000 0000
00000270: 0000 0000 0000 0000 0000 0000 0000 0000
00000280: 0dd1 772d de19 0b32 5ad1 b237 3946 962d
00000290: 9694 1231 4d8b 1231 83a2 0d31 2a70 0d31
000002a0: 56d1 1d2f 68e9 a733 208c 6439 a161 3e2f
000002b0: f65c bb32 9c4b bb32 ed10 b532 aede b432
000002c0: ebd2 e72d db5e 4d30 0000 0000 0000 0000
000002d0: e0bd 6f31 e0bd 6f31 52e4 6a31 61c8 6831
000002e0: 89da 912d 6c35 0130 0000 0000 0000 0000
000002f0: f8dc 1631 f8dc 1631 16cf 1331 ac7a 1231
00000300: f401 0000 f401 0000 0000 0000 0000 0000
00000310: f401 0000 f401 0000 f401 0000 f401 0000
00000320: 0000 0000 0000 0000 0000 0000 0000 0000
00000330: 0000 0000 0000 0000 0000 0000 0000 0000
00000340: 0000 0000 0000 0000 0000 0000 0000 0000
00000350: 0000 0000 0000 0000 0000 0000 0000 0000
00000360: 0000 0000 0000 0000 0000 0000 0000 0000
00000370: 0000 0000 0000 0000 0000 0000 0000 0000
00000380: 61c8 f92f 6222 4b32 1b30 fa39 0d5b ee32
00000390: 7255 9d33 6955 9d33 79f8 9933 2e5f 9833
000003a0: 3c3f 9631 43c2 7b36 7660 c63b 2c60 b630
000003b0: 0c9d 2235 7a7e 2235 0b0d 1d35 41c0 1c35
000003c0: 0502 5231 0991 9a33 5f28 b83b ee1e a532
000003d0: d318 1735 411b 1735 51fd 1135 84aa 1135
000003e0: 0000 0000 0000 0000 0000 0000 0000 0000
000003f0: 0000 0000 0000 0000 0000 0000 0000 0000

exp_avg f4 [60]
1.4248131e-08 -9.422401e-09 4.807248e-16 -1.2236879e-08 1.3927144e-09 -1.5979069e-08 -2.7180416e-09 -7.151468e-09
1.8470514e-08 -6.39585e-09 1.765718e-08 0.0 0.0 -2.840294e-09 0.0 -6e-45
7.514061e-15 0.0 1.8193916e-08 0.0 -3.2440186e-09 1.4591157e-08 -6e-45 -6e-45
6e-45 0.0 0.0 0.0 -5.9267653e-09 -4.5851397e-16 -3.793831e-09 0.0
-1.38032155e-08 0.0 -4.37696e-09 -6e-45 -1.7699803e-08 -2.3279425e-08 -6e-45 -1.1143062e-08
-3.304435e-09 -2.1249427e-08 -1.8316022e-08 -8.798283e-09 0.0 -6e-45 -1.01751985e-08 -9.198949e-09
-1.5995527e-08 -1.8694916e-08 0.0 1.9712248e-08 6e-45 -5.5671556e-08 0.0 0.0
0.0 -2.5117224e-09 -6e-45 0.0
00000000: f1c7 7432 28e0 21b2 3b8f 0a26 5d3a 52b2
00000010: c869 bf30 5842 89b2 4bc8 3ab1 fab8 f5b1
00000020: 17a9 9e32 7ec2 dbb1 8dac 9732 0000 0000
00000030: 0000 0000 fb2e 43b1 0000 0000 0400 0080
00000040: 7d5c 0728 0000 0000 d848 9c32 0000 0000
00000050: 61ed 5eb1 96ac 7a32 0400 0080 0400 0080
00000060: 0400 0000 0000 0000 0000 0000 0000 0000
00000070: 61a4 cbb1 5c28 04a6 e45a 82b1 0000 0000
00000080: 2f23 6db2 0000 0000 2664 96b1 0400 0080
00000090: 470a 98b2 fff7 c7b2 0400 0080 b46f 3fb2
000000a0: 3c14 63b1 fc87 b6b2 5c55 9db2 4227 17b2
000000b0: 0000 0000 0400 0080 ffce 2eb2 6809 1eb2
000000c0: 8966 89b2 8e96 a0b2 0000 0000 b153 a932
000000d0: 0400 0000 861b 6fb3 0000 0000 0000 0000
000000e0: 0000 0000 b09a 2cb1 0400 0080 0000 0000

exp_avg_sq f4 [60]
2.4958979e-08 9.112595e-09 3.828981e-09 1.0981449e-07 6.9719466e-11 2.9757636e-08 4.7463357e-13 2.6764809e-08
4.8372115e-08 8.195006e-09 3.8935646e-08 0.0 0.0 7.4172823e-09 0.0 2.8395495e-09
3.6961207e-09 0.0 4.9050932e-08 0.0 2.1324655e-09 2.180667e-08 3.4887009e-09 2.195348e-09
7e-43 0.0 0.0 0.0 7.326445e-08 6.0561797e-07 5.629056e-07 0.0
1.5384556e-08 0.0 2.4431268e-10 3.9650865e-09 4.926989e-08 7.463827e-08 2.1413238e-09 1.31294176e-08
2.405535e-10 7.235042e-08 3.1071272e-07 1.2408476e-07 0.0 7.842394e-10 1.5549006e-07 1.1023871e-08
4.1494552e-08 4.586614e-08 0.0 2.6194483e-08 3.0430751e-09 2.1750005e-13 0.0 0.0
0.0 4.3584057e-11 1.226401e-09 0.0
00000000: 6065 d632 9e8d 1c32 1390 8331 28d3 eb33
00000010: 9250 992e bc9d ff32 f498 052b 70e8 e532
00000020: b4c1 4f33 04ca 0c32 323a 2733 0000 0000
00000030: 0000 0000 1bdb fe31 0000 0000 e221 4331
00000040: d8fe 7d31 0000 0000 12ac 5233 0000 0000
00000050: bb8a 1231 6051 bb32 e0bd 6f31 f8dc 1631
00000060: f401 0000 0000 0000 0000 0000 0000 0000
00000070: 8f55 9d33 c091 2235 941a 1735 0000 0000
00000080: ff26 8432 0000 0000 f44f 862f 453d 8831
00000090: d19c 5333 d348 a033 9126 1331 ca8f 6132
000000a0: e53e 842f 105f 9b33 08d0 a634 293c 0534
000000b0: 0000 0000 f191 5730 c8f4 2634 7f63 3d32
000000c0: be37 3233 5bfe 4433 0000 0000 4702 e132
000000d0: 581e 5131 1fe2 742a 0000 0000 0000 0000
000000e0: 0000 0000 49af 3f2e 268e a830 0000 0000

exp_avg f4 [1, 60]
4.6255454e-06 3.34596e-06 1.8286887e-15 5.0618473e-07 1.964624e-07 2.510214e-06 3.980625e-06 9.821174e-07
4.348615e-06 2.2296151e-06 3.5930914e-06 0.0 0.0 4.0375318e-07 0.0 -6e-45
1.8069113e-13 0.0 5.7290204e-06 0.0 3.6744304e-06 3.9623474e-06 -6e-45 -6e-45
-6e-45 0.0 0.0 0.0 4.0495678e-07 3.4634253e-13 3.6065471e-06 0.0
1.9745098e-06 0.0 4.501924e-06 -6e-45 4.9599244e-06 2.351212e-06 -6e-45 2.730144e-06
4.9152127e-06 3.4387936e-06 4.528643e-07 2.464141e-06 0.0 -6e-45 1.8836487e-06 6.2244308e-06
5.5723913e-06 3.243061e-06 0.0 1.5203719e-06 -6e-45 2.7250856e-06 0.0 0.0
0.0 5.6504464e-06 -6e-45 0.0
00000000: 2235 9b36 288b 6036 5ac5 0327 c0e0 0735
00000010: 2cf3 5234 2675 2836 4f91 8536 4cd1 8335
00000020: 52ea 9136 7fa0 1536 d720 7136 0000 0000
00000030: 0000 0000 6ac3 d834 0000 0000 0400 0080
00000040: ac70 4b2a 0000 0000 e93b c036 0000 0000
00000050: 3c96 7636 4ef4 8436 0400 0080 0400 0080
00000060: 0400 0080 0000 0000 0000 0000 0000 0000
00000070: d668 d934 38f9 c22a 0208 7236 0000 0000
00000080: d281 0436 0000 0000 3c0f 9736 0400 0080
00000090: 6d6d a636 84c9 1d36 0400 0080 8437 3736
000000a0: 5bed a436 06c6 6636 3221 f334 9f5d 2536
000000b0: 0000 0000 0400 0080 add1 fc35 74db d036
000000c0: 7afa ba36 5da3 5936 0000 0000 950f cc35
000000d0: 0400 0080 9de0 3636 0000 0000 0000 0000
000000e0: 0000 0000 f798 bd36 0400 0080 0000 0000

exp_avg_sq f4 [1, 60]
0.0025978927 0.00094309676 6.3133015e-08 2.42165e-08 4.4384237e-08 0.00067460025 6.39896e-07 7.770623e-08
0.0025973956 7.1876886e-05 0.0015576265 0.0 0.0 9.043557e-06 0.0 6.893949e-08
5.8350302e-08 0.0 0.0049145888 0.0 1.8566518e-05 0.0016794227 8.598863e-08 9.845994e-08
7e-43 0.0 0.0 0.0 3.547959e-08 4.415467e-06 1.8632537e-06 0.0
0.00026216236 0.0 0.00022726906 7.090218e-08 0.0035452482 0.0006907784 8.1981156e-08 0.00059845136
0.00038104222 0.0015718606 1.7740636e-08 2.3462724e-07 0.0 2.840038e-08 1.3779835e-07 0.0048816158
0.0045011896 0.001415004 0.0 0.00013743219 7.551566e-12 2.0376814e-10 0.0 0.0
0.0 1.9131435e-06 4.456394e-08 0.0
00000000: 6841 2a3b 273a 773a be93 8733 a604 d032
00000010: fca0 3e33 a8d7 303a 51c5 2b35 74df a633
00000020: 1139 2a3b 9cbc 9638 4629 cc3a 0000 0000
00000030: 0000 0000 c8b9 1737 0000 0000 e30b 9433
00000040: d69c 7a33 0000 0000 8f0a a13b 0000 0000
00000050: 4bbf 9b37 1320 dc3a c0a8 b833 ed70 d333
00000060: f401 0000 0000 0000 0000 0000 0000 0000
00000070: 3962 1833 9328 9436 e914 fa35 0000 0000
00000080: d672 8939 0000 0000 134f 6e39 e342 9833
00000090: 6557 683b 5b15 353a 9e0d b033 64e1 1c3a
000000a0: 9fc6 c739 e406 ce3a 1264 9832 d8ed 7b34
000000b0: 0000 0000 19f5 f332 b9f5 1334 f6f5 9f3b
000000c0: b77e 933b a877 b93a 0000 0000 ac1b 1039
000000d0: 3bd9 042d a20b 602f 0000 0000 0000 0000
000000e0: 0000 0000 8e63 0036 9266 3f33 0000 0000
